…
I1206 10:32:51.766726  2751 upgrade_proto.cpp:82] Successfully upgraded batch norm layers using deprecated params.
I1206 10:32:51.767663  2751 net.cpp:82] Initializing net from parameters: 
name: "ResNet-20"
state {
  phase: TRAIN
  level: 0
  stage: ""
}
layer {
  name: "Data1"
  type: "Data"
  top: "data"
  top: "label"
  transform_param {
    scale: 0.00390625
    mirror: true
    crop_size: 32
    mean_value: 125.3
    mean_value: 122.9
    mean_value: 113.8
  }
  data_param {
    source: "/home/lijianfei/datasets/cifar10_40/train_lmdb"
    batch_size: 128
    backend: LMDB
  }
  image_data_param {
    shuffle: true
  }
}
layer {
  name: "conv1"
  type: "Convolution"
  bottom: "data"
  top: "conv1"
  param {
    lr_mult: 1
    decay_mult: 1
  }
  param {
    lr_mult: 2
    decay_mult: 0
  }
  convolution_param {
    num_output: 16
    bias_term: true
    pad: 1
    kernel_size: 3
    stride: 1
    weight_filler {
      type: "msra"
    }
    bias_filler {
      type: "constant"
      value: 0
    }
  }
}
layer {
  name: "conv1/bn"
  type: "BatchNorm"
  bottom: "conv1"
  top: "conv1"
  param {
    lr_mult: 0
    decay_mult: 0
  }
  param {
    lr_mult: 0
    decay_mult: 0
  }
  param {
    lr_mult: 0
    decay_mult: 0
  }
  batch_norm_param {
    use_global_stats: false
  }
}
layer {
  name: "conv1/scale"
  type: "Scale"
  bottom: "conv1"
  top: "conv1"
  scale_param {
    bias_term: true
  }
}
layer {
  name: "conv1/ReLU"
  type: "ReLU"
  bottom: "conv1"
  top: "conv1"
}
layer {
  name: "conv2_1_0"
  type: "Convolution"
  bottom: "conv1"
  top: "conv2_1_0"
  param {
    lr_mult: 1
    decay_mult: 1
  }
  param {
    lr_mult: 2
    decay_mult: 0
  }
  convolution_param {
    num_output: 16
    bias_term: true
    pad: 1
    kernel_size: 3
    stride: 1
    weight_filler {
      type: "msra"
    }
    bias_filler {
      type: "constant"
      value: 0
    }
  }
}
layer {
  name: "conv2_1_bn0"
  type: "BatchNorm"
  bottom: "conv2_1_0"
  top: "conv2_1_0"
  param {
    lr_mult: 0
    decay_mult: 0
  }
  param {
    lr_mult: 0
    decay_mult: 0
  }
  param {
    lr_mult: 0
    decay_mult: 0
  }
  batch_norm_param {
    use_global_stats: false
  }
}
layer {
  name: "conv2_1_scale0"
  type: "Scale"
  bottom: "conv2_1_0"
  top: "conv2_1_0"
  scale_param {
    bias_term: true
  }
}
layer {
  name: "conv2_1_ReLU0"
  type: "ReLU"
  bottom: "conv2_1_0"
  top: "conv2_1_0"
}
layer {
  name: "conv2_1_1"
  type: "Convolution"
  bottom: "conv2_1_0"
  top: "conv2_1_1"
  param {
    lr_mult: 1
    decay_mult: 1
  }
  param {
    lr_mult: 2
    decay_mult: 0
  }
  convolution_param {
    num_output: 16
    bias_term: true
    pad: 1
    kernel_size: 3
    stride: 1
    weight_filler {
      type: "msra"
    }
    bias_filler {
      type: "constant"
      value: 0
    }
  }
}
layer {
  name: "conv2_1bn1"
  type: "BatchNorm"
  bottom: "conv2_1_1"
  top: "conv2_1_1"
  param {
    lr_mult: 0
    decay_mult: 0
  }
  param {
    lr_mult: 0
    decay_mult: 0
  }
  param {
    lr_mult: 0
    decay_mult: 0
  }
  batch_norm_param {
    use_global_stats: false
  }
}
layer {
  name: "conv2_1_scale1"
  type: "Scale"
  bottom: "conv2_1_1"
  top: "conv2_1_1"
  scale_param {
    bias_term: true
  }
}
layer {
  name: "conv2_Eltwise_1"
  type: "Eltwise"
  bottom: "conv1"
  bottom: "conv2_1_1"
  top: "conv2_Eltwise_1"
  eltwise_param {
    operation: SUM
  }
}
layer {
  name: "conv2_1ReLU_1"
  type: "ReLU"
  bottom: "conv2_Eltwise_1"
  top: "conv2_Eltwise_1"
}
layer {
  name: "conv2_2_0"
  type: "Convolution"
  bottom: "conv2_Eltwise_1"
  top: "conv2_2_0"
  param {
    lr_mult: 1
    decay_mult: 1
  }
  param {
    lr_mult: 2
    decay_mult: 0
  }
  convolution_param {
    num_output: 16
    bias_term: true
    pad: 1
    kernel_size: 3
    stride: 1
    weight_filler {
      type: "msra"
    }
    bias_filler {
      type: "constant"
      value: 0
    }
  }
}
layer {
  name: "conv2_2_bn0"
  type: "BatchNorm"
  bottom: "conv2_2_0"
  top: "conv2_2_0"
  param {
    lr_mult: 0
    decay_mult: 0
  }
  param {
    lr_mult: 0
    decay_mult: 0
  }
  param {
    lr_mult: 0
    decay_mult: 0
  }
  batch_norm_param {
    use_global_stats: false
  }
}
layer {
  name: "conv2_2_scale0"
  type: "Scale"
  bottom: "conv2_2_0"
  top: "conv2_2_0"
  scale_param {
    bias_term: true
  }
}
layer {
  name: "conv2_2_ReLU0"
  type: "ReLU"
  bottom: "conv2_2_0"
  top: "conv2_2_0"
}
layer {
  name: "conv2_2_1"
  type: "Convolution"
  bottom: "conv2_2_0"
  top: "conv2_2_1"
  param {
    lr_mult: 1
    decay_mult: 1
  }
  param {
    lr_mult: 2
    decay_mult: 0
  }
  convolution_param {
    num_output: 16
    bias_term: true
    pad: 1
    kernel_size: 3
    stride: 1
    weight_filler {
      type: "msra"
    }
    bias_filler {
      type: "constant"
      value: 0
    }
  }
}
layer {
  name: "conv2_2bn1"
  type: "BatchNorm"
  bottom: "conv2_2_1"
  top: "conv2_2_1"
  param {
    lr_mult: 0
    decay_mult: 0
  }
  param {
    lr_mult: 0
    decay_mult: 0
  }
  param {
    lr_mult: 0
    decay_mult: 0
  }
  batch_norm_param {
    use_global_stats: false
  }
}
layer {
  name: "conv2_2_scale1"
  type: "Scale"
  bottom: "conv2_2_1"
  top: "conv2_2_1"
  scale_param {
    bias_term: true
  }
}
layer {
  name: "conv2_Eltwise_2"
  type: "Eltwise"
  bottom: "conv2_Eltwise_1"
  bottom: "conv2_2_1"
  top: "conv2_Eltwise_2"
  eltwise_param {
    operation: SUM
  }
}
layer {
  name: "conv2_2ReLU_1"
  type: "ReLU"
  bottom: "conv2_Eltwise_2"
  top: "conv2_Eltwise_2"
}
layer {
  name: "conv2_3_0"
  type: "Convolution"
  bottom: "conv2_Eltwise_2"
  top: "conv2_3_0"
  param {
    lr_mult: 1
    decay_mult: 1
  }
  param {
    lr_mult: 2
    decay_mult: 0
  }
  convolution_param {
    num_output: 16
    bias_term: true
    pad: 1
    kernel_size: 3
    stride: 1
    weight_filler {
      type: "msra"
    }
    bias_filler {
      type: "constant"
      value: 0
    }
  }
}
layer {
  name: "conv2_3_bn0"
  type: "BatchNorm"
  bottom: "conv2_3_0"
  top: "conv2_3_0"
  param {
    lr_mult: 0
    decay_mult: 0
  }
  param {
    lr_mult: 0
    decay_mult: 0
  }
  param {
    lr_mult: 0
    decay_mult: 0
  }
  batch_norm_param {
    use_global_stats: false
  }
}
layer {
  name: "conv2_3_scale0"
  type: "Scale"
  bottom: "conv2_3_0"
  top: "conv2_3_0"
  scale_param {
    bias_term: true
  }
}
layer {
  name: "conv2_3_ReLU0"
  type: "ReLU"
  bottom: "conv2_3_0"
  top: "conv2_3_0"
}
layer {
  name: "conv2_3_1"
  type: "Convolution"
  bottom: "conv2_3_0"
  top: "conv2_3_1"
  param {
    lr_mult: 1
    decay_mult: 1
  }
  param {
    lr_mult: 2
    decay_mult: 0
  }
  convolution_param {
    num_output: 16
    bias_term: true
    pad: 1
    kernel_size: 3
    stride: 1
    weight_filler {
      type: "msra"
    }
    bias_filler {
      type: "constant"
      value: 0
    }
  }
}
layer {
  name: "conv2_3bn1"
  type: "BatchNorm"
  bottom: "conv2_3_1"
  top: "conv2_3_1"
  param {
    lr_mult: 0
    decay_mult: 0
  }
  param {
    lr_mult: 0
    decay_mult: 0
  }
  param {
    lr_mult: 0
    decay_mult: 0
  }
  batch_norm_param {
    use_global_stats: false
  }
}
layer {
  name: "conv2_3_scale1"
  type: "Scale"
  bottom: "conv2_3_1"
  top: "conv2_3_1"
  scale_param {
    bias_term: true
  }
}
layer {
  name: "conv2_Eltwise_3"
  type: "Eltwise"
  bottom: "conv2_Eltwise_2"
  bottom: "conv2_3_1"
  top: "conv2_Eltwise_3"
  eltwise_param {
    operation: SUM
  }
}
layer {
  name: "conv2_3ReLU_1"
  type: "ReLU"
  bottom: "conv2_Eltwise_3"
  top: "conv2_Eltwise_3"
}
layer {
  name: "conv3_1_0"
  type: "Convolution"
  bottom: "conv2_Eltwise_3"
  top: "conv3_1_0"
  param {
    lr_mult: 1
    decay_mult: 1
  }
  param {
    lr_mult: 2
    decay_mult: 0
  }
  convolution_param {
    num_output: 32
    bias_term: true
    pad: 1
    kernel_size: 3
    stride: 2
    weight_filler {
      type: "msra"
    }
    bias_filler {
      type: "constant"
      value: 0
    }
  }
}
layer {
  name: "conv3_1_bn0"
  type: "BatchNorm"
  bottom: "conv3_1_0"
  top: "conv3_1_0"
  param {
    lr_mult: 0
    decay_mult: 0
  }
  param {
    lr_mult: 0
    decay_mult: 0
  }
  param {
    lr_mult: 0
    decay_mult: 0
  }
  batch_norm_param {
    use_global_stats: false
  }
}
layer {
  name: "conv3_1_scale0"
  type: "Scale"
  bottom: "conv3_1_0"
  top: "conv3_1_0"
  scale_param {
    bias_term: true
  }
}
layer {
  name: "conv3_1_ReLU0"
  type: "ReLU"
  bottom: "conv3_1_0"
  top: "conv3_1_0"
}
layer {
  name: "conv3_1_1"
  type: "Convolution"
  bottom: "conv3_1_0"
  top: "conv3_1_1"
  param {
    lr_mult: 1
    decay_mult: 1
  }
  param {
    lr_mult: 2
    decay_mult: 0
  }
  convolution_param {
    num_output: 32
    bias_term: true
    pad: 1
    kernel_size: 3
    stride: 1
    weight_filler {
      type: "msra"
    }
    bias_filler {
      type: "constant"
      value: 0
    }
  }
}
layer {
  name: "conv3_1bn1"
  type: "BatchNorm"
  bottom: "conv3_1_1"
  top: "conv3_1_1"
  param {
    lr_mult: 0
    decay_mult: 0
  }
  param {
    lr_mult: 0
    decay_mult: 0
  }
  param {
    lr_mult: 0
    decay_mult: 0
  }
  batch_norm_param {
    use_global_stats: false
  }
}
layer {
  name: "conv3_1_scale1"
  type: "Scale"
  bottom: "conv3_1_1"
  top: "conv3_1_1"
  scale_param {
    bias_term: true
  }
}
layer {
  name: "conv3_1_down"
  type: "Convolution"
  bottom: "conv2_Eltwise_3"
  top: "conv3_1_down"
  param {
    lr_mult: 1
    decay_mult: 1
  }
  param {
    lr_mult: 2
    decay_mult: 0
  }
  convolution_param {
    num_output: 32
    bias_term: true
    pad: 0
    kernel_size: 1
    stride: 2
    weight_filler {
      type: "msra"
    }
    bias_filler {
      type: "constant"
      value: 0
    }
  }
}
layer {
  name: "conv3_1_bn_down"
  type: "BatchNorm"
  bottom: "conv3_1_down"
  top: "conv3_1_down"
  param {
    lr_mult: 0
    decay_mult: 0
  }
  param {
    lr_mult: 0
    decay_mult: 0
  }
  param {
    lr_mult: 0
    decay_mult: 0
  }
  batch_norm_param {
    use_global_stats: false
  }
}
layer {
  name: "conv3_1_scale_down"
  type: "Scale"
  bottom: "conv3_1_down"
  top: "conv3_1_down"
  scale_param {
    bias_term: true
  }
}
layer {
  name: "conv3_Eltwise_1"
  type: "Eltwise"
  bottom: "conv3_1_1"
  bottom: "conv3_1_down"
  top: "conv3_Eltwise_1"
  eltwise_param {
    operation: SUM
  }
}
layer {
  name: "conv3_1ReLU_1"
  type: "ReLU"
  bottom: "conv3_Eltwise_1"
  top: "conv3_Eltwise_1"
}
layer {
  name: "conv3_2_0"
  type: "Convolution"
  bottom: "conv3_Eltwise_1"
  top: "conv3_2_0"
  param {
    lr_mult: 1
    decay_mult: 1
  }
  param {
    lr_mult: 2
    decay_mult: 0
  }
  convolution_param {
    num_output: 32
    bias_term: true
    pad: 1
    kernel_size: 3
    stride: 1
    weight_filler {
      type: "msra"
    }
    bias_filler {
      type: "constant"
      value: 0
    }
  }
}
layer {
  name: "conv3_2_bn0"
  type: "BatchNorm"
  bottom: "conv3_2_0"
  top: "conv3_2_0"
  param {
    lr_mult: 0
    decay_mult: 0
  }
  param {
    lr_mult: 0
    decay_mult: 0
  }
  param {
    lr_mult: 0
    decay_mult: 0
  }
  batch_norm_param {
    use_global_stats: false
  }
}
layer {
  name: "conv3_2_scale0"
  type: "Scale"
  bottom: "conv3_2_0"
  top: "conv3_2_0"
  scale_param {
    bias_term: true
  }
}
layer {
  name: "conv3_2_ReLU0"
  type: "ReLU"
  bottom: "conv3_2_0"
  top: "conv3_2_0"
}
layer {
  name: "conv3_2_1"
  type: "Convolution"
  bottom: "conv3_2_0"
  top: "conv3_2_1"
  param {
    lr_mult: 1
    decay_mult: 1
  }
  param {
    lr_mult: 2
    decay_mult: 0
  }
  convolution_param {
    num_output: 32
    bias_term: true
    pad: 1
    kernel_size: 3
    stride: 1
    weight_filler {
      type: "msra"
    }
    bias_filler {
      type: "constant"
      value: 0
    }
  }
}
layer {
  name: "conv3_2bn1"
  type: "BatchNorm"
  bottom: "conv3_2_1"
  top: "conv3_2_1"
  param {
    lr_mult: 0
    decay_mult: 0
  }
  param {
    lr_mult: 0
    decay_mult: 0
  }
  param {
    lr_mult: 0
    decay_mult: 0
  }
  batch_norm_param {
    use_global_stats: false
  }
}
layer {
  name: "conv3_2_scale1"
  type: "Scale"
  bottom: "conv3_2_1"
  top: "conv3_2_1"
  scale_param {
    bias_term: true
  }
}
layer {
  name: "conv3_Eltwise_2"
  type: "Eltwise"
  bottom: "conv3_Eltwise_1"
  bottom: "conv3_2_1"
  top: "conv3_Eltwise_2"
  eltwise_param {
    operation: SUM
  }
}
layer {
  name: "conv3_2ReLU_1"
  type: "ReLU"
  bottom: "conv3_Eltwise_2"
  top: "conv3_Eltwise_2"
}
layer {
  name: "conv3_3_0"
  type: "Convolution"
  bottom: "conv3_Eltwise_2"
  top: "conv3_3_0"
  param {
    lr_mult: 1
    decay_mult: 1
  }
  param {
    lr_mult: 2
    decay_mult: 0
  }
  convolution_param {
    num_output: 32
    bias_term: true
    pad: 1
    kernel_size: 3
    stride: 1
    weight_filler {
      type: "msra"
    }
    bias_filler {
      type: "constant"
      value: 0
    }
  }
}
layer {
  name: "conv3_3_bn0"
  type: "BatchNorm"
  bottom: "conv3_3_0"
  top: "conv3_3_0"
  param {
    lr_mult: 0
    decay_mult: 0
  }
  param {
    lr_mult: 0
    decay_mult: 0
  }
  param {
    lr_mult: 0
    decay_mult: 0
  }
  batch_norm_param {
    use_global_stats: false
  }
}
layer {
  name: "conv3_3_scale0"
  type: "Scale"
  bottom: "conv3_3_0"
  top: "conv3_3_0"
  scale_param {
    bias_term: true
  }
}
layer {
  name: "conv3_3_ReLU0"
  type: "ReLU"
  bottom: "conv3_3_0"
  top: "conv3_3_0"
}
layer {
  name: "conv3_3_1"
  type: "Convolution"
  bottom: "conv3_3_0"
  top: "conv3_3_1"
  param {
    lr_mult: 1
    decay_mult: 1
  }
  param {
    lr_mult: 2
    decay_mult: 0
  }
  convolution_param {
    num_output: 32
    bias_term: true
    pad: 1
    kernel_size: 3
    stride: 1
    weight_filler {
      type: "msra"
    }
    bias_filler {
      type: "constant"
      value: 0
    }
  }
}
layer {
  name: "conv3_3bn1"
  type: "BatchNorm"
  bottom: "conv3_3_1"
  top: "conv3_3_1"
  param {
    lr_mult: 0
    decay_mult: 0
  }
  param {
    lr_mult: 0
    decay_mult: 0
  }
  param {
    lr_mult: 0
    decay_mult: 0
  }
  batch_norm_param {
    use_global_stats: false
  }
}
layer {
  name: "conv3_3_scale1"
  type: "Scale"
  bottom: "conv3_3_1"
  top: "conv3_3_1"
  scale_param {
    bias_term: true
  }
}
layer {
  name: "conv3_Eltwise_3"
  type: "Eltwise"
  bottom: "conv3_Eltwise_2"
  bottom: "conv3_3_1"
  top: "conv3_Eltwise_3"
  eltwise_param {
    operation: SUM
  }
}
layer {
  name: "conv3_3ReLU_1"
  type: "ReLU"
  bottom: "conv3_Eltwise_3"
  top: "conv3_Eltwise_3"
}
layer {
  name: "conv4_1_0"
  type: "Convolution"
  bottom: "conv3_Eltwise_3"
  top: "conv4_1_0"
  param {
    lr_mult: 1
    decay_mult: 1
  }
  param {
    lr_mult: 2
    decay_mult: 0
  }
  convolution_param {
    num_output: 64
    bias_term: true
    pad: 1
    kernel_size: 3
    stride: 2
    weight_filler {
      type: "msra"
    }
    bias_filler {
      type: "constant"
      value: 0
    }
  }
}
layer {
  name: "conv4_1_bn0"
  type: "BatchNorm"
  bottom: "conv4_1_0"
  top: "conv4_1_0"
  param {
    lr_mult: 0
    decay_mult: 0
  }
  param {
    lr_mult: 0
    decay_mult: 0
  }
  param {
    lr_mult: 0
    decay_mult: 0
  }
  batch_norm_param {
    use_global_stats: false
  }
}
layer {
  name: "conv4_1_scale0"
  type: "Scale"
  bottom: "conv4_1_0"
  top: "conv4_1_0"
  scale_param {
    bias_term: true
  }
}
layer {
  name: "conv4_1_ReLU0"
  type: "ReLU"
  bottom: "conv4_1_0"
  top: "conv4_1_0"
}
layer {
  name: "conv4_1_1"
  type: "Convolution"
  bottom: "conv4_1_0"
  top: "conv4_1_1"
  param {
    lr_mult: 1
    decay_mult: 1
  }
  param {
    lr_mult: 2
    decay_mult: 0
  }
  convolution_param {
    num_output: 64
    bias_term: true
    pad: 1
    kernel_size: 3
    stride: 1
    weight_filler {
      type: "msra"
    }
    bias_filler {
      type: "constant"
      value: 0
    }
  }
}
layer {
  name: "conv4_1bn1"
  type: "BatchNorm"
  bottom: "conv4_1_1"
  top: "conv4_1_1"
  param {
    lr_mult: 0
    decay_mult: 0
  }
  param {
    lr_mult: 0
    decay_mult: 0
  }
  param {
    lr_mult: 0
    decay_mult: 0
  }
  batch_norm_param {
    use_global_stats: false
  }
}
layer {
  name: "conv4_1_scale1"
  type: "Scale"
  bottom: "conv4_1_1"
  top: "conv4_1_1"
  scale_param {
    bias_term: true
  }
}
layer {
  name: "conv4_1_down"
  type: "Convolution"
  bottom: "conv3_Eltwise_3"
  top: "conv4_1_down"
  param {
    lr_mult: 1
    decay_mult: 1
  }
  param {
    lr_mult: 2
    decay_mult: 0
  }
  convolution_param {
    num_output: 64
    bias_term: true
    pad: 0
    kernel_size: 1
    stride: 2
    weight_filler {
      type: "msra"
    }
    bias_filler {
      type: "constant"
      value: 0
    }
  }
}
layer {
  name: "conv4_1_bn_down"
  type: "BatchNorm"
  bottom: "conv4_1_down"
  top: "conv4_1_down"
  param {
    lr_mult: 0
    decay_mult: 0
  }
  param {
    lr_mult: 0
    decay_mult: 0
  }
  param {
    lr_mult: 0
    decay_mult: 0
  }
  batch_norm_param {
    use_global_stats: false
  }
}
layer {
  name: "conv4_1_scale_down"
  type: "Scale"
  bottom: "conv4_1_down"
  top: "conv4_1_down"
  scale_param {
    bias_term: true
  }
}
layer {
  name: "conv4_Eltwise_1"
  type: "Eltwise"
  bottom: "conv4_1_1"
  bottom: "conv4_1_down"
  top: "conv4_Eltwise_1"
  eltwise_param {
    operation: SUM
  }
}
layer {
  name: "conv4_1ReLU_1"
  type: "ReLU"
  bottom: "conv4_Eltwise_1"
  top: "conv4_Eltwise_1"
}
layer {
  name: "conv4_2_0"
  type: "Convolution"
  bottom: "conv4_Eltwise_1"
  top: "conv4_2_0"
  param {
    lr_mult: 1
    decay_mult: 1
  }
  param {
    lr_mult: 2
    decay_mult: 0
  }
  convolution_param {
    num_output: 64
    bias_term: true
    pad: 1
    kernel_size: 3
    stride: 1
    weight_filler {
      type: "msra"
    }
    bias_filler {
      type: "constant"
      value: 0
    }
  }
}
layer {
  name: "conv4_2_bn0"
  type: "BatchNorm"
  bottom: "conv4_2_0"
  top: "conv4_2_0"
  param {
    lr_mult: 0
    decay_mult: 0
  }
  param {
    lr_mult: 0
    decay_mult: 0
  }
  param {
    lr_mult: 0
    decay_mult: 0
  }
  batch_norm_param {
    use_global_stats: false
  }
}
layer {
  name: "conv4_2_scale0"
  type: "Scale"
  bottom: "conv4_2_0"
  top: "conv4_2_0"
  scale_param {
    bias_term: true
  }
}
layer {
  name: "conv4_2_ReLU0"
  type: "ReLU"
  bottom: "conv4_2_0"
  top: "conv4_2_0"
}
layer {
  name: "conv4_2_1"
  type: "Convolution"
  bottom: "conv4_2_0"
  top: "conv4_2_1"
  param {
    lr_mult: 1
    decay_mult: 1
  }
  param {
    lr_mult: 2
    decay_mult: 0
  }
  convolution_param {
    num_output: 64
    bias_term: true
    pad: 1
    kernel_size: 3
    stride: 1
    weight_filler {
      type: "msra"
    }
    bias_filler {
      type: "constant"
      value: 0
    }
  }
}
layer {
  name: "conv4_2bn1"
  type: "BatchNorm"
  bottom: "conv4_2_1"
  top: "conv4_2_1"
  param {
    lr_mult: 0
    decay_mult: 0
  }
  param {
    lr_mult: 0
    decay_mult: 0
  }
  param {
    lr_mult: 0
    decay_mult: 0
  }
  batch_norm_param {
    use_global_stats: false
  }
}
layer {
  name: "conv4_2_scale1"
  type: "Scale"
  bottom: "conv4_2_1"
  top: "conv4_2_1"
  scale_param {
    bias_term: true
  }
}
layer {
  name: "conv4_Eltwise_2"
  type: "Eltwise"
  bottom: "conv4_Eltwise_1"
  bottom: "conv4_2_1"
  top: "conv4_Eltwise_2"
  eltwise_param {
    operation: SUM
  }
}
layer {
  name: "conv4_2ReLU_1"
  type: "ReLU"
  bottom: "conv4_Eltwise_2"
  top: "conv4_Eltwise_2"
}
layer {
  name: "conv4_3_0"
  type: "Convolution"
  bottom: "conv4_Eltwise_2"
  top: "conv4_3_0"
  param {
    lr_mult: 1
    decay_mult: 1
  }
  param {
    lr_mult: 2
    decay_mult: 0
  }
  convolution_param {
    num_output: 64
    bias_term: true
    pad: 1
    kernel_size: 3
    stride: 1
    weight_filler {
      type: "msra"
    }
    bias_filler {
      type: "constant"
      value: 0
    }
  }
}
layer {
  name: "conv4_3_bn0"
  type: "BatchNorm"
  bottom: "conv4_3_0"
  top: "conv4_3_0"
  param {
    lr_mult: 0
    decay_mult: 0
  }
  param {
    lr_mult: 0
    decay_mult: 0
  }
  param {
    lr_mult: 0
    decay_mult: 0
  }
  batch_norm_param {
    use_global_stats: false
  }
}
layer {
  name: "conv4_3_scale0"
  type: "Scale"
  bottom: "conv4_3_0"
  top: "conv4_3_0"
  scale_param {
    bias_term: true
  }
}
layer {
  name: "conv4_3_ReLU0"
  type: "ReLU"
  bottom: "conv4_3_0"
  top: "conv4_3_0"
}
layer {
  name: "conv4_3_1"
  type: "Convolution"
  bottom: "conv4_3_0"
  top: "conv4_3_1"
  param {
    lr_mult: 1
    decay_mult: 1
  }
  param {
    lr_mult: 2
    decay_mult: 0
  }
  convolution_param {
    num_output: 64
    bias_term: true
    pad: 1
    kernel_size: 3
    stride: 1
    weight_filler {
      type: "msra"
    }
    bias_filler {
      type: "constant"
      value: 0
    }
  }
}
layer {
  name: "conv4_3bn1"
  type: "BatchNorm"
  bottom: "conv4_3_1"
  top: "conv4_3_1"
  param {
    lr_mult: 0
    decay_mult: 0
  }
  param {
    lr_mult: 0
    decay_mult: 0
  }
  param {
    lr_mult: 0
    decay_mult: 0
  }
  batch_norm_param {
    use_global_stats: false
  }
}
layer {
  name: "conv4_3_scale1"
  type: "Scale"
  bottom: "conv4_3_1"
  top: "conv4_3_1"
  scale_param {
    bias_term: true
  }
}
layer {
  name: "conv4_Eltwise_3"
  type: "Eltwise"
  bottom: "conv4_Eltwise_2"
  bottom: "conv4_3_1"
  top: "conv4_Eltwise_3"
  eltwise_param {
    operation: SUM
  }
}
layer {
  name: "conv4_3ReLU_1"
  type: "ReLU"
  bottom: "conv4_Eltwise_3"
  top: "conv4_Eltwise_3"
}
layer {
  name: "Pooling1"
  type: "Pooling"
  bottom: "conv4_Eltwise_3"
  top: "Pooling1"
  pooling_param {
    pool: AVE
    global_pooling: true
  }
}
layer {
  name: "fc1"
  type: "Convolution"
  bottom: "Pooling1"
  top: "fc1"
  param {
    lr_mult: 1
    decay_mult: 1
  }
  param {
    lr_mult: 2
    decay_mult: 1
  }
  convolution_param {
    num_output: 10
    bias_term: true
    pad: 0
    kernel_size: 1
    stride: 1
    weight_filler {
      type: "msra"
    }
    bias_filler {
      type: "constant"
      value: 0
    }
  }
}
layer {
  name: "Softmax1"
  type: "SoftmaxWithLoss"
  bottom: "fc1"
  bottom: "label"
  top: "Softmax1"
}
I1206 10:32:51.768133  2751 layer_factory.hpp:77] Creating layer Data1
I1206 10:32:51.768365  2751 db_lmdb.cpp:35] Opened lmdb /home/lijianfei/datasets/cifar10_40/train_lmdb
I1206 10:32:51.768409  2751 net.cpp:128] Creating Layer Data1
I1206 10:32:51.768420  2751 net.cpp:522] Data1 -> data
I1206 10:32:51.768453  2751 net.cpp:522] Data1 -> label
I1206 10:32:51.770035  2751 data_layer.cpp:45] output data size: 128,3,32,32
I1206 10:32:51.778540  2751 net.cpp:172] Setting up Data1
I1206 10:32:51.778592  2751 net.cpp:186] Top shape: 128 3 32 32 (393216)
I1206 10:32:51.778599  2751 net.cpp:186] Top shape: 128 (128)
I1206 10:32:51.778609  2751 net.cpp:194] Memory required for data: 1573376
I1206 10:32:51.778622  2751 layer_factory.hpp:77] Creating layer conv1
I1206 10:32:51.778652  2751 net.cpp:128] Creating Layer conv1
I1206 10:32:51.778661  2751 net.cpp:558] conv1 <- data
I1206 10:32:51.778687  2751 net.cpp:522] conv1 -> conv1
I1206 10:32:52.535346  2751 net.cpp:172] Setting up conv1
I1206 10:32:52.535398  2751 net.cpp:186] Top shape: 128 16 32 32 (2097152)
I1206 10:32:52.535403  2751 net.cpp:194] Memory required for data: 9961984
I1206 10:32:52.535441  2751 layer_factory.hpp:77] Creating layer conv1/bn
I1206 10:32:52.535459  2751 net.cpp:128] Creating Layer conv1/bn
I1206 10:32:52.535465  2751 net.cpp:558] conv1/bn <- conv1
I1206 10:32:52.535475  2751 net.cpp:509] conv1/bn -> conv1 (in-place)
I1206 10:32:52.535773  2751 net.cpp:172] Setting up conv1/bn
I1206 10:32:52.535787  2751 net.cpp:186] Top shape: 128 16 32 32 (2097152)
I1206 10:32:52.535792  2751 net.cpp:194] Memory required for data: 18350592
I1206 10:32:52.535806  2751 layer_factory.hpp:77] Creating layer conv1/scale
I1206 10:32:52.535815  2751 net.cpp:128] Creating Layer conv1/scale
I1206 10:32:52.535820  2751 net.cpp:558] conv1/scale <- conv1
I1206 10:32:52.535825  2751 net.cpp:509] conv1/scale -> conv1 (in-place)
I1206 10:32:52.535871  2751 layer_factory.hpp:77] Creating layer conv1/scale
I1206 10:32:52.536012  2751 net.cpp:172] Setting up conv1/scale
I1206 10:32:52.536027  2751 net.cpp:186] Top shape: 128 16 32 32 (2097152)
I1206 10:32:52.536031  2751 net.cpp:194] Memory required for data: 26739200
I1206 10:32:52.536041  2751 layer_factory.hpp:77] Creating layer conv1/ReLU
I1206 10:32:52.536049  2751 net.cpp:128] Creating Layer conv1/ReLU
I1206 10:32:52.536054  2751 net.cpp:558] conv1/ReLU <- conv1
I1206 10:32:52.536059  2751 net.cpp:509] conv1/ReLU -> conv1 (in-place)
I1206 10:32:52.536311  2751 net.cpp:172] Setting up conv1/ReLU
I1206 10:32:52.536329  2751 net.cpp:186] Top shape: 128 16 32 32 (2097152)
I1206 10:32:52.536334  2751 net.cpp:194] Memory required for data: 35127808
I1206 10:32:52.536337  2751 layer_factory.hpp:77] Creating layer conv1_conv1/ReLU_0_split
I1206 10:32:52.536347  2751 net.cpp:128] Creating Layer conv1_conv1/ReLU_0_split
I1206 10:32:52.536352  2751 net.cpp:558] conv1_conv1/ReLU_0_split <- conv1
I1206 10:32:52.536360  2751 net.cpp:522] conv1_conv1/ReLU_0_split -> conv1_conv1/ReLU_0_split_0
I1206 10:32:52.536371  2751 net.cpp:522] conv1_conv1/ReLU_0_split -> conv1_conv1/ReLU_0_split_1
I1206 10:32:52.536417  2751 net.cpp:172] Setting up conv1_conv1/ReLU_0_split
I1206 10:32:52.536429  2751 net.cpp:186] Top shape: 128 16 32 32 (2097152)
I1206 10:32:52.536435  2751 net.cpp:186] Top shape: 128 16 32 32 (2097152)
I1206 10:32:52.536439  2751 net.cpp:194] Memory required for data: 51905024
I1206 10:32:52.536443  2751 layer_factory.hpp:77] Creating layer conv2_1_0
I1206 10:32:52.536458  2751 net.cpp:128] Creating Layer conv2_1_0
I1206 10:32:52.536463  2751 net.cpp:558] conv2_1_0 <- conv1_conv1/ReLU_0_split_0
I1206 10:32:52.536470  2751 net.cpp:522] conv2_1_0 -> conv2_1_0
I1206 10:32:52.538969  2751 net.cpp:172] Setting up conv2_1_0
I1206 10:32:52.538995  2751 net.cpp:186] Top shape: 128 16 32 32 (2097152)
I1206 10:32:52.538998  2751 net.cpp:194] Memory required for data: 60293632
I1206 10:32:52.539011  2751 layer_factory.hpp:77] Creating layer conv2_1_bn0
I1206 10:32:52.539021  2751 net.cpp:128] Creating Layer conv2_1_bn0
I1206 10:32:52.539029  2751 net.cpp:558] conv2_1_bn0 <- conv2_1_0
I1206 10:32:52.539038  2751 net.cpp:509] conv2_1_bn0 -> conv2_1_0 (in-place)
I1206 10:32:52.539259  2751 net.cpp:172] Setting up conv2_1_bn0
I1206 10:32:52.539270  2751 net.cpp:186] Top shape: 128 16 32 32 (2097152)
I1206 10:32:52.539274  2751 net.cpp:194] Memory required for data: 68682240
I1206 10:32:52.539284  2751 layer_factory.hpp:77] Creating layer conv2_1_scale0
I1206 10:32:52.539294  2751 net.cpp:128] Creating Layer conv2_1_scale0
I1206 10:32:52.539299  2751 net.cpp:558] conv2_1_scale0 <- conv2_1_0
I1206 10:32:52.539304  2751 net.cpp:509] conv2_1_scale0 -> conv2_1_0 (in-place)
I1206 10:32:52.539340  2751 layer_factory.hpp:77] Creating layer conv2_1_scale0
I1206 10:32:52.539463  2751 net.cpp:172] Setting up conv2_1_scale0
I1206 10:32:52.539475  2751 net.cpp:186] Top shape: 128 16 32 32 (2097152)
I1206 10:32:52.539479  2751 net.cpp:194] Memory required for data: 77070848
I1206 10:32:52.539487  2751 layer_factory.hpp:77] Creating layer conv2_1_ReLU0
I1206 10:32:52.539494  2751 net.cpp:128] Creating Layer conv2_1_ReLU0
I1206 10:32:52.539499  2751 net.cpp:558] conv2_1_ReLU0 <- conv2_1_0
I1206 10:32:52.539503  2751 net.cpp:509] conv2_1_ReLU0 -> conv2_1_0 (in-place)
I1206 10:32:52.539754  2751 net.cpp:172] Setting up conv2_1_ReLU0
I1206 10:32:52.539772  2751 net.cpp:186] Top shape: 128 16 32 32 (2097152)
I1206 10:32:52.539813  2751 net.cpp:194] Memory required for data: 85459456
I1206 10:32:52.539844  2751 layer_factory.hpp:77] Creating layer conv2_1_1
I1206 10:32:52.539857  2751 net.cpp:128] Creating Layer conv2_1_1
I1206 10:32:52.539862  2751 net.cpp:558] conv2_1_1 <- conv2_1_0
I1206 10:32:52.539872  2751 net.cpp:522] conv2_1_1 -> conv2_1_1
I1206 10:32:52.541167  2751 net.cpp:172] Setting up conv2_1_1
I1206 10:32:52.541193  2751 net.cpp:186] Top shape: 128 16 32 32 (2097152)
I1206 10:32:52.541198  2751 net.cpp:194] Memory required for data: 93848064
I1206 10:32:52.541206  2751 layer_factory.hpp:77] Creating layer conv2_1bn1
I1206 10:32:52.541218  2751 net.cpp:128] Creating Layer conv2_1bn1
I1206 10:32:52.541224  2751 net.cpp:558] conv2_1bn1 <- conv2_1_1
I1206 10:32:52.541232  2751 net.cpp:509] conv2_1bn1 -> conv2_1_1 (in-place)
I1206 10:32:52.541457  2751 net.cpp:172] Setting up conv2_1bn1
I1206 10:32:52.541469  2751 net.cpp:186] Top shape: 128 16 32 32 (2097152)
I1206 10:32:52.541473  2751 net.cpp:194] Memory required for data: 102236672
I1206 10:32:52.541486  2751 layer_factory.hpp:77] Creating layer conv2_1_scale1
I1206 10:32:52.541492  2751 net.cpp:128] Creating Layer conv2_1_scale1
I1206 10:32:52.541496  2751 net.cpp:558] conv2_1_scale1 <- conv2_1_1
I1206 10:32:52.541505  2751 net.cpp:509] conv2_1_scale1 -> conv2_1_1 (in-place)
I1206 10:32:52.541541  2751 layer_factory.hpp:77] Creating layer conv2_1_scale1
I1206 10:32:52.541663  2751 net.cpp:172] Setting up conv2_1_scale1
I1206 10:32:52.541672  2751 net.cpp:186] Top shape: 128 16 32 32 (2097152)
I1206 10:32:52.541676  2751 net.cpp:194] Memory required for data: 110625280
I1206 10:32:52.541684  2751 layer_factory.hpp:77] Creating layer conv2_Eltwise_1
I1206 10:32:52.541692  2751 net.cpp:128] Creating Layer conv2_Eltwise_1
I1206 10:32:52.541697  2751 net.cpp:558] conv2_Eltwise_1 <- conv1_conv1/ReLU_0_split_1
I1206 10:32:52.541702  2751 net.cpp:558] conv2_Eltwise_1 <- conv2_1_1
I1206 10:32:52.541707  2751 net.cpp:522] conv2_Eltwise_1 -> conv2_Eltwise_1
I1206 10:32:52.541738  2751 net.cpp:172] Setting up conv2_Eltwise_1
I1206 10:32:52.541744  2751 net.cpp:186] Top shape: 128 16 32 32 (2097152)
I1206 10:32:52.541748  2751 net.cpp:194] Memory required for data: 119013888
I1206 10:32:52.541751  2751 layer_factory.hpp:77] Creating layer conv2_1ReLU_1
I1206 10:32:52.541760  2751 net.cpp:128] Creating Layer conv2_1ReLU_1
I1206 10:32:52.541764  2751 net.cpp:558] conv2_1ReLU_1 <- conv2_Eltwise_1
I1206 10:32:52.541770  2751 net.cpp:509] conv2_1ReLU_1 -> conv2_Eltwise_1 (in-place)
I1206 10:32:52.542181  2751 net.cpp:172] Setting up conv2_1ReLU_1
I1206 10:32:52.542197  2751 net.cpp:186] Top shape: 128 16 32 32 (2097152)
I1206 10:32:52.542201  2751 net.cpp:194] Memory required for data: 127402496
I1206 10:32:52.542207  2751 layer_factory.hpp:77] Creating layer conv2_Eltwise_1_conv2_1ReLU_1_0_split
I1206 10:32:52.542217  2751 net.cpp:128] Creating Layer conv2_Eltwise_1_conv2_1ReLU_1_0_split
I1206 10:32:52.542222  2751 net.cpp:558] conv2_Eltwise_1_conv2_1ReLU_1_0_split <- conv2_Eltwise_1
I1206 10:32:52.542229  2751 net.cpp:522] conv2_Eltwise_1_conv2_1ReLU_1_0_split -> conv2_Eltwise_1_conv2_1ReLU_1_0_split_0
I1206 10:32:52.542241  2751 net.cpp:522] conv2_Eltwise_1_conv2_1ReLU_1_0_split -> conv2_Eltwise_1_conv2_1ReLU_1_0_split_1
I1206 10:32:52.542290  2751 net.cpp:172] Setting up conv2_Eltwise_1_conv2_1ReLU_1_0_split
I1206 10:32:52.542299  2751 net.cpp:186] Top shape: 128 16 32 32 (2097152)
I1206 10:32:52.542305  2751 net.cpp:186] Top shape: 128 16 32 32 (2097152)
I1206 10:32:52.542309  2751 net.cpp:194] Memory required for data: 144179712
I1206 10:32:52.542313  2751 layer_factory.hpp:77] Creating layer conv2_2_0
I1206 10:32:52.542326  2751 net.cpp:128] Creating Layer conv2_2_0
I1206 10:32:52.542331  2751 net.cpp:558] conv2_2_0 <- conv2_Eltwise_1_conv2_1ReLU_1_0_split_0
I1206 10:32:52.542340  2751 net.cpp:522] conv2_2_0 -> conv2_2_0
I1206 10:32:52.543548  2751 net.cpp:172] Setting up conv2_2_0
I1206 10:32:52.543567  2751 net.cpp:186] Top shape: 128 16 32 32 (2097152)
I1206 10:32:52.543571  2751 net.cpp:194] Memory required for data: 152568320
I1206 10:32:52.543594  2751 layer_factory.hpp:77] Creating layer conv2_2_bn0
I1206 10:32:52.543604  2751 net.cpp:128] Creating Layer conv2_2_bn0
I1206 10:32:52.543608  2751 net.cpp:558] conv2_2_bn0 <- conv2_2_0
I1206 10:32:52.543619  2751 net.cpp:509] conv2_2_bn0 -> conv2_2_0 (in-place)
I1206 10:32:52.543846  2751 net.cpp:172] Setting up conv2_2_bn0
I1206 10:32:52.543853  2751 net.cpp:186] Top shape: 128 16 32 32 (2097152)
I1206 10:32:52.543857  2751 net.cpp:194] Memory required for data: 160956928
I1206 10:32:52.543866  2751 layer_factory.hpp:77] Creating layer conv2_2_scale0
I1206 10:32:52.543874  2751 net.cpp:128] Creating Layer conv2_2_scale0
I1206 10:32:52.543877  2751 net.cpp:558] conv2_2_scale0 <- conv2_2_0
I1206 10:32:52.543885  2751 net.cpp:509] conv2_2_scale0 -> conv2_2_0 (in-place)
I1206 10:32:52.543921  2751 layer_factory.hpp:77] Creating layer conv2_2_scale0
I1206 10:32:52.544045  2751 net.cpp:172] Setting up conv2_2_scale0
I1206 10:32:52.544052  2751 net.cpp:186] Top shape: 128 16 32 32 (2097152)
I1206 10:32:52.544056  2751 net.cpp:194] Memory required for data: 169345536
I1206 10:32:52.544064  2751 layer_factory.hpp:77] Creating layer conv2_2_ReLU0
I1206 10:32:52.544070  2751 net.cpp:128] Creating Layer conv2_2_ReLU0
I1206 10:32:52.544075  2751 net.cpp:558] conv2_2_ReLU0 <- conv2_2_0
I1206 10:32:52.544081  2751 net.cpp:509] conv2_2_ReLU0 -> conv2_2_0 (in-place)
I1206 10:32:52.544332  2751 net.cpp:172] Setting up conv2_2_ReLU0
I1206 10:32:52.544343  2751 net.cpp:186] Top shape: 128 16 32 32 (2097152)
I1206 10:32:52.544348  2751 net.cpp:194] Memory required for data: 177734144
I1206 10:32:52.544353  2751 layer_factory.hpp:77] Creating layer conv2_2_1
I1206 10:32:52.544364  2751 net.cpp:128] Creating Layer conv2_2_1
I1206 10:32:52.544369  2751 net.cpp:558] conv2_2_1 <- conv2_2_0
I1206 10:32:52.544379  2751 net.cpp:522] conv2_2_1 -> conv2_2_1
I1206 10:32:52.545589  2751 net.cpp:172] Setting up conv2_2_1
I1206 10:32:52.545617  2751 net.cpp:186] Top shape: 128 16 32 32 (2097152)
I1206 10:32:52.545622  2751 net.cpp:194] Memory required for data: 186122752
I1206 10:32:52.545636  2751 layer_factory.hpp:77] Creating layer conv2_2bn1
I1206 10:32:52.545647  2751 net.cpp:128] Creating Layer conv2_2bn1
I1206 10:32:52.545652  2751 net.cpp:558] conv2_2bn1 <- conv2_2_1
I1206 10:32:52.545658  2751 net.cpp:509] conv2_2bn1 -> conv2_2_1 (in-place)
I1206 10:32:52.545892  2751 net.cpp:172] Setting up conv2_2bn1
I1206 10:32:52.545902  2751 net.cpp:186] Top shape: 128 16 32 32 (2097152)
I1206 10:32:52.545905  2751 net.cpp:194] Memory required for data: 194511360
I1206 10:32:52.545917  2751 layer_factory.hpp:77] Creating layer conv2_2_scale1
I1206 10:32:52.545928  2751 net.cpp:128] Creating Layer conv2_2_scale1
I1206 10:32:52.545935  2751 net.cpp:558] conv2_2_scale1 <- conv2_2_1
I1206 10:32:52.545941  2751 net.cpp:509] conv2_2_scale1 -> conv2_2_1 (in-place)
I1206 10:32:52.545980  2751 layer_factory.hpp:77] Creating layer conv2_2_scale1
I1206 10:32:52.546110  2751 net.cpp:172] Setting up conv2_2_scale1
I1206 10:32:52.546120  2751 net.cpp:186] Top shape: 128 16 32 32 (2097152)
I1206 10:32:52.546124  2751 net.cpp:194] Memory required for data: 202899968
I1206 10:32:52.546133  2751 layer_factory.hpp:77] Creating layer conv2_Eltwise_2
I1206 10:32:52.546139  2751 net.cpp:128] Creating Layer conv2_Eltwise_2
I1206 10:32:52.546144  2751 net.cpp:558] conv2_Eltwise_2 <- conv2_Eltwise_1_conv2_1ReLU_1_0_split_1
I1206 10:32:52.546149  2751 net.cpp:558] conv2_Eltwise_2 <- conv2_2_1
I1206 10:32:52.546157  2751 net.cpp:522] conv2_Eltwise_2 -> conv2_Eltwise_2
I1206 10:32:52.546181  2751 net.cpp:172] Setting up conv2_Eltwise_2
I1206 10:32:52.546190  2751 net.cpp:186] Top shape: 128 16 32 32 (2097152)
I1206 10:32:52.546195  2751 net.cpp:194] Memory required for data: 211288576
I1206 10:32:52.546200  2751 layer_factory.hpp:77] Creating layer conv2_2ReLU_1
I1206 10:32:52.546205  2751 net.cpp:128] Creating Layer conv2_2ReLU_1
I1206 10:32:52.546209  2751 net.cpp:558] conv2_2ReLU_1 <- conv2_Eltwise_2
I1206 10:32:52.546233  2751 net.cpp:509] conv2_2ReLU_1 -> conv2_Eltwise_2 (in-place)
I1206 10:32:52.546460  2751 net.cpp:172] Setting up conv2_2ReLU_1
I1206 10:32:52.546478  2751 net.cpp:186] Top shape: 128 16 32 32 (2097152)
I1206 10:32:52.546483  2751 net.cpp:194] Memory required for data: 219677184
I1206 10:32:52.546486  2751 layer_factory.hpp:77] Creating layer conv2_Eltwise_2_conv2_2ReLU_1_0_split
I1206 10:32:52.546494  2751 net.cpp:128] Creating Layer conv2_Eltwise_2_conv2_2ReLU_1_0_split
I1206 10:32:52.546499  2751 net.cpp:558] conv2_Eltwise_2_conv2_2ReLU_1_0_split <- conv2_Eltwise_2
I1206 10:32:52.546504  2751 net.cpp:522] conv2_Eltwise_2_conv2_2ReLU_1_0_split -> conv2_Eltwise_2_conv2_2ReLU_1_0_split_0
I1206 10:32:52.546514  2751 net.cpp:522] conv2_Eltwise_2_conv2_2ReLU_1_0_split -> conv2_Eltwise_2_conv2_2ReLU_1_0_split_1
I1206 10:32:52.546561  2751 net.cpp:172] Setting up conv2_Eltwise_2_conv2_2ReLU_1_0_split
I1206 10:32:52.546567  2751 net.cpp:186] Top shape: 128 16 32 32 (2097152)
I1206 10:32:52.546573  2751 net.cpp:186] Top shape: 128 16 32 32 (2097152)
I1206 10:32:52.546576  2751 net.cpp:194] Memory required for data: 236454400
I1206 10:32:52.546581  2751 layer_factory.hpp:77] Creating layer conv2_3_0
I1206 10:32:52.546593  2751 net.cpp:128] Creating Layer conv2_3_0
I1206 10:32:52.546598  2751 net.cpp:558] conv2_3_0 <- conv2_Eltwise_2_conv2_2ReLU_1_0_split_0
I1206 10:32:52.546607  2751 net.cpp:522] conv2_3_0 -> conv2_3_0
I1206 10:32:52.547849  2751 net.cpp:172] Setting up conv2_3_0
I1206 10:32:52.547866  2751 net.cpp:186] Top shape: 128 16 32 32 (2097152)
I1206 10:32:52.547870  2751 net.cpp:194] Memory required for data: 244843008
I1206 10:32:52.547880  2751 layer_factory.hpp:77] Creating layer conv2_3_bn0
I1206 10:32:52.547894  2751 net.cpp:128] Creating Layer conv2_3_bn0
I1206 10:32:52.547900  2751 net.cpp:558] conv2_3_bn0 <- conv2_3_0
I1206 10:32:52.547909  2751 net.cpp:509] conv2_3_bn0 -> conv2_3_0 (in-place)
I1206 10:32:52.548140  2751 net.cpp:172] Setting up conv2_3_bn0
I1206 10:32:52.548147  2751 net.cpp:186] Top shape: 128 16 32 32 (2097152)
I1206 10:32:52.548151  2751 net.cpp:194] Memory required for data: 253231616
I1206 10:32:52.548161  2751 layer_factory.hpp:77] Creating layer conv2_3_scale0
I1206 10:32:52.548168  2751 net.cpp:128] Creating Layer conv2_3_scale0
I1206 10:32:52.548173  2751 net.cpp:558] conv2_3_scale0 <- conv2_3_0
I1206 10:32:52.548178  2751 net.cpp:509] conv2_3_scale0 -> conv2_3_0 (in-place)
I1206 10:32:52.548214  2751 layer_factory.hpp:77] Creating layer conv2_3_scale0
I1206 10:32:52.548454  2751 net.cpp:172] Setting up conv2_3_scale0
I1206 10:32:52.548468  2751 net.cpp:186] Top shape: 128 16 32 32 (2097152)
I1206 10:32:52.548473  2751 net.cpp:194] Memory required for data: 261620224
I1206 10:32:52.548481  2751 layer_factory.hpp:77] Creating layer conv2_3_ReLU0
I1206 10:32:52.548490  2751 net.cpp:128] Creating Layer conv2_3_ReLU0
I1206 10:32:52.548494  2751 net.cpp:558] conv2_3_ReLU0 <- conv2_3_0
I1206 10:32:52.548499  2751 net.cpp:509] conv2_3_ReLU0 -> conv2_3_0 (in-place)
I1206 10:32:52.548914  2751 net.cpp:172] Setting up conv2_3_ReLU0
I1206 10:32:52.548934  2751 net.cpp:186] Top shape: 128 16 32 32 (2097152)
I1206 10:32:52.548939  2751 net.cpp:194] Memory required for data: 270008832
I1206 10:32:52.548944  2751 layer_factory.hpp:77] Creating layer conv2_3_1
I1206 10:32:52.548960  2751 net.cpp:128] Creating Layer conv2_3_1
I1206 10:32:52.548969  2751 net.cpp:558] conv2_3_1 <- conv2_3_0
I1206 10:32:52.549015  2751 net.cpp:522] conv2_3_1 -> conv2_3_1
I1206 10:32:52.550324  2751 net.cpp:172] Setting up conv2_3_1
I1206 10:32:52.550350  2751 net.cpp:186] Top shape: 128 16 32 32 (2097152)
I1206 10:32:52.550355  2751 net.cpp:194] Memory required for data: 278397440
I1206 10:32:52.550369  2751 layer_factory.hpp:77] Creating layer conv2_3bn1
I1206 10:32:52.550379  2751 net.cpp:128] Creating Layer conv2_3bn1
I1206 10:32:52.550385  2751 net.cpp:558] conv2_3bn1 <- conv2_3_1
I1206 10:32:52.550392  2751 net.cpp:509] conv2_3bn1 -> conv2_3_1 (in-place)
I1206 10:32:52.550632  2751 net.cpp:172] Setting up conv2_3bn1
I1206 10:32:52.550657  2751 net.cpp:186] Top shape: 128 16 32 32 (2097152)
I1206 10:32:52.550662  2751 net.cpp:194] Memory required for data: 286786048
I1206 10:32:52.550671  2751 layer_factory.hpp:77] Creating layer conv2_3_scale1
I1206 10:32:52.550683  2751 net.cpp:128] Creating Layer conv2_3_scale1
I1206 10:32:52.550691  2751 net.cpp:558] conv2_3_scale1 <- conv2_3_1
I1206 10:32:52.550698  2751 net.cpp:509] conv2_3_scale1 -> conv2_3_1 (in-place)
I1206 10:32:52.550740  2751 layer_factory.hpp:77] Creating layer conv2_3_scale1
I1206 10:32:52.550873  2751 net.cpp:172] Setting up conv2_3_scale1
I1206 10:32:52.550884  2751 net.cpp:186] Top shape: 128 16 32 32 (2097152)
I1206 10:32:52.550887  2751 net.cpp:194] Memory required for data: 295174656
I1206 10:32:52.550895  2751 layer_factory.hpp:77] Creating layer conv2_Eltwise_3
I1206 10:32:52.550904  2751 net.cpp:128] Creating Layer conv2_Eltwise_3
I1206 10:32:52.550909  2751 net.cpp:558] conv2_Eltwise_3 <- conv2_Eltwise_2_conv2_2ReLU_1_0_split_1
I1206 10:32:52.550915  2751 net.cpp:558] conv2_Eltwise_3 <- conv2_3_1
I1206 10:32:52.550920  2751 net.cpp:522] conv2_Eltwise_3 -> conv2_Eltwise_3
I1206 10:32:52.550946  2751 net.cpp:172] Setting up conv2_Eltwise_3
I1206 10:32:52.550956  2751 net.cpp:186] Top shape: 128 16 32 32 (2097152)
I1206 10:32:52.550961  2751 net.cpp:194] Memory required for data: 303563264
I1206 10:32:52.550964  2751 layer_factory.hpp:77] Creating layer conv2_3ReLU_1
I1206 10:32:52.550971  2751 net.cpp:128] Creating Layer conv2_3ReLU_1
I1206 10:32:52.550974  2751 net.cpp:558] conv2_3ReLU_1 <- conv2_Eltwise_3
I1206 10:32:52.550981  2751 net.cpp:509] conv2_3ReLU_1 -> conv2_Eltwise_3 (in-place)
I1206 10:32:52.551213  2751 net.cpp:172] Setting up conv2_3ReLU_1
I1206 10:32:52.551225  2751 net.cpp:186] Top shape: 128 16 32 32 (2097152)
I1206 10:32:52.551229  2751 net.cpp:194] Memory required for data: 311951872
I1206 10:32:52.551234  2751 layer_factory.hpp:77] Creating layer conv2_Eltwise_3_conv2_3ReLU_1_0_split
I1206 10:32:52.551241  2751 net.cpp:128] Creating Layer conv2_Eltwise_3_conv2_3ReLU_1_0_split
I1206 10:32:52.551246  2751 net.cpp:558] conv2_Eltwise_3_conv2_3ReLU_1_0_split <- conv2_Eltwise_3
I1206 10:32:52.551254  2751 net.cpp:522] conv2_Eltwise_3_conv2_3ReLU_1_0_split -> conv2_Eltwise_3_conv2_3ReLU_1_0_split_0
I1206 10:32:52.551265  2751 net.cpp:522] conv2_Eltwise_3_conv2_3ReLU_1_0_split -> conv2_Eltwise_3_conv2_3ReLU_1_0_split_1
I1206 10:32:52.551312  2751 net.cpp:172] Setting up conv2_Eltwise_3_conv2_3ReLU_1_0_split
I1206 10:32:52.551321  2751 net.cpp:186] Top shape: 128 16 32 32 (2097152)
I1206 10:32:52.551327  2751 net.cpp:186] Top shape: 128 16 32 32 (2097152)
I1206 10:32:52.551331  2751 net.cpp:194] Memory required for data: 328729088
I1206 10:32:52.551335  2751 layer_factory.hpp:77] Creating layer conv3_1_0
I1206 10:32:52.551347  2751 net.cpp:128] Creating Layer conv3_1_0
I1206 10:32:52.551353  2751 net.cpp:558] conv3_1_0 <- conv2_Eltwise_3_conv2_3ReLU_1_0_split_0
I1206 10:32:52.551363  2751 net.cpp:522] conv3_1_0 -> conv3_1_0
I1206 10:32:52.554087  2751 net.cpp:172] Setting up conv3_1_0
I1206 10:32:52.554116  2751 net.cpp:186] Top shape: 128 32 16 16 (1048576)
I1206 10:32:52.554121  2751 net.cpp:194] Memory required for data: 332923392
I1206 10:32:52.554136  2751 layer_factory.hpp:77] Creating layer conv3_1_bn0
I1206 10:32:52.554152  2751 net.cpp:128] Creating Layer conv3_1_bn0
I1206 10:32:52.554157  2751 net.cpp:558] conv3_1_bn0 <- conv3_1_0
I1206 10:32:52.554169  2751 net.cpp:509] conv3_1_bn0 -> conv3_1_0 (in-place)
I1206 10:32:52.554412  2751 net.cpp:172] Setting up conv3_1_bn0
I1206 10:32:52.554422  2751 net.cpp:186] Top shape: 128 32 16 16 (1048576)
I1206 10:32:52.554426  2751 net.cpp:194] Memory required for data: 337117696
I1206 10:32:52.554436  2751 layer_factory.hpp:77] Creating layer conv3_1_scale0
I1206 10:32:52.554446  2751 net.cpp:128] Creating Layer conv3_1_scale0
I1206 10:32:52.554451  2751 net.cpp:558] conv3_1_scale0 <- conv3_1_0
I1206 10:32:52.554457  2751 net.cpp:509] conv3_1_scale0 -> conv3_1_0 (in-place)
I1206 10:32:52.554495  2751 layer_factory.hpp:77] Creating layer conv3_1_scale0
I1206 10:32:52.554651  2751 net.cpp:172] Setting up conv3_1_scale0
I1206 10:32:52.554661  2751 net.cpp:186] Top shape: 128 32 16 16 (1048576)
I1206 10:32:52.554666  2751 net.cpp:194] Memory required for data: 341312000
I1206 10:32:52.554673  2751 layer_factory.hpp:77] Creating layer conv3_1_ReLU0
I1206 10:32:52.554680  2751 net.cpp:128] Creating Layer conv3_1_ReLU0
I1206 10:32:52.554684  2751 net.cpp:558] conv3_1_ReLU0 <- conv3_1_0
I1206 10:32:52.554692  2751 net.cpp:509] conv3_1_ReLU0 -> conv3_1_0 (in-place)
I1206 10:32:52.554929  2751 net.cpp:172] Setting up conv3_1_ReLU0
I1206 10:32:52.554942  2751 net.cpp:186] Top shape: 128 32 16 16 (1048576)
I1206 10:32:52.554946  2751 net.cpp:194] Memory required for data: 345506304
I1206 10:32:52.554952  2751 layer_factory.hpp:77] Creating layer conv3_1_1
I1206 10:32:52.554965  2751 net.cpp:128] Creating Layer conv3_1_1
I1206 10:32:52.554971  2751 net.cpp:558] conv3_1_1 <- conv3_1_0
I1206 10:32:52.554981  2751 net.cpp:522] conv3_1_1 -> conv3_1_1
I1206 10:32:52.556358  2751 net.cpp:172] Setting up conv3_1_1
I1206 10:32:52.556385  2751 net.cpp:186] Top shape: 128 32 16 16 (1048576)
I1206 10:32:52.556391  2751 net.cpp:194] Memory required for data: 349700608
I1206 10:32:52.556401  2751 layer_factory.hpp:77] Creating layer conv3_1bn1
I1206 10:32:52.556408  2751 net.cpp:128] Creating Layer conv3_1bn1
I1206 10:32:52.556413  2751 net.cpp:558] conv3_1bn1 <- conv3_1_1
I1206 10:32:52.556427  2751 net.cpp:509] conv3_1bn1 -> conv3_1_1 (in-place)
I1206 10:32:52.556660  2751 net.cpp:172] Setting up conv3_1bn1
I1206 10:32:52.556669  2751 net.cpp:186] Top shape: 128 32 16 16 (1048576)
I1206 10:32:52.556674  2751 net.cpp:194] Memory required for data: 353894912
I1206 10:32:52.556684  2751 layer_factory.hpp:77] Creating layer conv3_1_scale1
I1206 10:32:52.556690  2751 net.cpp:128] Creating Layer conv3_1_scale1
I1206 10:32:52.556695  2751 net.cpp:558] conv3_1_scale1 <- conv3_1_1
I1206 10:32:52.556700  2751 net.cpp:509] conv3_1_scale1 -> conv3_1_1 (in-place)
I1206 10:32:52.556766  2751 layer_factory.hpp:77] Creating layer conv3_1_scale1
I1206 10:32:52.556951  2751 net.cpp:172] Setting up conv3_1_scale1
I1206 10:32:52.556962  2751 net.cpp:186] Top shape: 128 32 16 16 (1048576)
I1206 10:32:52.556967  2751 net.cpp:194] Memory required for data: 358089216
I1206 10:32:52.556975  2751 layer_factory.hpp:77] Creating layer conv3_1_down
I1206 10:32:52.556993  2751 net.cpp:128] Creating Layer conv3_1_down
I1206 10:32:52.556998  2751 net.cpp:558] conv3_1_down <- conv2_Eltwise_3_conv2_3ReLU_1_0_split_1
I1206 10:32:52.557004  2751 net.cpp:522] conv3_1_down -> conv3_1_down
I1206 10:32:52.558248  2751 net.cpp:172] Setting up conv3_1_down
I1206 10:32:52.558264  2751 net.cpp:186] Top shape: 128 32 16 16 (1048576)
I1206 10:32:52.558269  2751 net.cpp:194] Memory required for data: 362283520
I1206 10:32:52.558290  2751 layer_factory.hpp:77] Creating layer conv3_1_bn_down
I1206 10:32:52.558300  2751 net.cpp:128] Creating Layer conv3_1_bn_down
I1206 10:32:52.558306  2751 net.cpp:558] conv3_1_bn_down <- conv3_1_down
I1206 10:32:52.558312  2751 net.cpp:509] conv3_1_bn_down -> conv3_1_down (in-place)
I1206 10:32:52.558547  2751 net.cpp:172] Setting up conv3_1_bn_down
I1206 10:32:52.558553  2751 net.cpp:186] Top shape: 128 32 16 16 (1048576)
I1206 10:32:52.558557  2751 net.cpp:194] Memory required for data: 366477824
I1206 10:32:52.558567  2751 layer_factory.hpp:77] Creating layer conv3_1_scale_down
I1206 10:32:52.558573  2751 net.cpp:128] Creating Layer conv3_1_scale_down
I1206 10:32:52.558578  2751 net.cpp:558] conv3_1_scale_down <- conv3_1_down
I1206 10:32:52.558584  2751 net.cpp:509] conv3_1_scale_down -> conv3_1_down (in-place)
I1206 10:32:52.558622  2751 layer_factory.hpp:77] Creating layer conv3_1_scale_down
I1206 10:32:52.558755  2751 net.cpp:172] Setting up conv3_1_scale_down
I1206 10:32:52.558765  2751 net.cpp:186] Top shape: 128 32 16 16 (1048576)
I1206 10:32:52.558769  2751 net.cpp:194] Memory required for data: 370672128
I1206 10:32:52.558776  2751 layer_factory.hpp:77] Creating layer conv3_Eltwise_1
I1206 10:32:52.558800  2751 net.cpp:128] Creating Layer conv3_Eltwise_1
I1206 10:32:52.558805  2751 net.cpp:558] conv3_Eltwise_1 <- conv3_1_1
I1206 10:32:52.558810  2751 net.cpp:558] conv3_Eltwise_1 <- conv3_1_down
I1206 10:32:52.558816  2751 net.cpp:522] conv3_Eltwise_1 -> conv3_Eltwise_1
I1206 10:32:52.558840  2751 net.cpp:172] Setting up conv3_Eltwise_1
I1206 10:32:52.558847  2751 net.cpp:186] Top shape: 128 32 16 16 (1048576)
I1206 10:32:52.558851  2751 net.cpp:194] Memory required for data: 374866432
I1206 10:32:52.558856  2751 layer_factory.hpp:77] Creating layer conv3_1ReLU_1
I1206 10:32:52.558861  2751 net.cpp:128] Creating Layer conv3_1ReLU_1
I1206 10:32:52.558866  2751 net.cpp:558] conv3_1ReLU_1 <- conv3_Eltwise_1
I1206 10:32:52.558872  2751 net.cpp:509] conv3_1ReLU_1 -> conv3_Eltwise_1 (in-place)
I1206 10:32:52.559100  2751 net.cpp:172] Setting up conv3_1ReLU_1
I1206 10:32:52.559109  2751 net.cpp:186] Top shape: 128 32 16 16 (1048576)
I1206 10:32:52.559113  2751 net.cpp:194] Memory required for data: 379060736
I1206 10:32:52.559118  2751 layer_factory.hpp:77] Creating layer conv3_Eltwise_1_conv3_1ReLU_1_0_split
I1206 10:32:52.559124  2751 net.cpp:128] Creating Layer conv3_Eltwise_1_conv3_1ReLU_1_0_split
I1206 10:32:52.559128  2751 net.cpp:558] conv3_Eltwise_1_conv3_1ReLU_1_0_split <- conv3_Eltwise_1
I1206 10:32:52.559137  2751 net.cpp:522] conv3_Eltwise_1_conv3_1ReLU_1_0_split -> conv3_Eltwise_1_conv3_1ReLU_1_0_split_0
I1206 10:32:52.559145  2751 net.cpp:522] conv3_Eltwise_1_conv3_1ReLU_1_0_split -> conv3_Eltwise_1_conv3_1ReLU_1_0_split_1
I1206 10:32:52.559196  2751 net.cpp:172] Setting up conv3_Eltwise_1_conv3_1ReLU_1_0_split
I1206 10:32:52.559204  2751 net.cpp:186] Top shape: 128 32 16 16 (1048576)
I1206 10:32:52.559211  2751 net.cpp:186] Top shape: 128 32 16 16 (1048576)
I1206 10:32:52.559213  2751 net.cpp:194] Memory required for data: 387449344
I1206 10:32:52.559217  2751 layer_factory.hpp:77] Creating layer conv3_2_0
I1206 10:32:52.559229  2751 net.cpp:128] Creating Layer conv3_2_0
I1206 10:32:52.559234  2751 net.cpp:558] conv3_2_0 <- conv3_Eltwise_1_conv3_1ReLU_1_0_split_0
I1206 10:32:52.559244  2751 net.cpp:522] conv3_2_0 -> conv3_2_0
I1206 10:32:52.560612  2751 net.cpp:172] Setting up conv3_2_0
I1206 10:32:52.560634  2751 net.cpp:186] Top shape: 128 32 16 16 (1048576)
I1206 10:32:52.560638  2751 net.cpp:194] Memory required for data: 391643648
I1206 10:32:52.560648  2751 layer_factory.hpp:77] Creating layer conv3_2_bn0
I1206 10:32:52.560657  2751 net.cpp:128] Creating Layer conv3_2_bn0
I1206 10:32:52.560662  2751 net.cpp:558] conv3_2_bn0 <- conv3_2_0
I1206 10:32:52.560672  2751 net.cpp:509] conv3_2_bn0 -> conv3_2_0 (in-place)
I1206 10:32:52.560912  2751 net.cpp:172] Setting up conv3_2_bn0
I1206 10:32:52.560923  2751 net.cpp:186] Top shape: 128 32 16 16 (1048576)
I1206 10:32:52.560927  2751 net.cpp:194] Memory required for data: 395837952
I1206 10:32:52.560936  2751 layer_factory.hpp:77] Creating layer conv3_2_scale0
I1206 10:32:52.560943  2751 net.cpp:128] Creating Layer conv3_2_scale0
I1206 10:32:52.560948  2751 net.cpp:558] conv3_2_scale0 <- conv3_2_0
I1206 10:32:52.560956  2751 net.cpp:509] conv3_2_scale0 -> conv3_2_0 (in-place)
I1206 10:32:52.560993  2751 layer_factory.hpp:77] Creating layer conv3_2_scale0
I1206 10:32:52.561134  2751 net.cpp:172] Setting up conv3_2_scale0
I1206 10:32:52.561147  2751 net.cpp:186] Top shape: 128 32 16 16 (1048576)
I1206 10:32:52.561151  2751 net.cpp:194] Memory required for data: 400032256
I1206 10:32:52.561159  2751 layer_factory.hpp:77] Creating layer conv3_2_ReLU0
I1206 10:32:52.561166  2751 net.cpp:128] Creating Layer conv3_2_ReLU0
I1206 10:32:52.561169  2751 net.cpp:558] conv3_2_ReLU0 <- conv3_2_0
I1206 10:32:52.561175  2751 net.cpp:509] conv3_2_ReLU0 -> conv3_2_0 (in-place)
I1206 10:32:52.561595  2751 net.cpp:172] Setting up conv3_2_ReLU0
I1206 10:32:52.561616  2751 net.cpp:186] Top shape: 128 32 16 16 (1048576)
I1206 10:32:52.561621  2751 net.cpp:194] Memory required for data: 404226560
I1206 10:32:52.561625  2751 layer_factory.hpp:77] Creating layer conv3_2_1
I1206 10:32:52.561655  2751 net.cpp:128] Creating Layer conv3_2_1
I1206 10:32:52.561661  2751 net.cpp:558] conv3_2_1 <- conv3_2_0
I1206 10:32:52.561669  2751 net.cpp:522] conv3_2_1 -> conv3_2_1
I1206 10:32:52.563045  2751 net.cpp:172] Setting up conv3_2_1
I1206 10:32:52.563069  2751 net.cpp:186] Top shape: 128 32 16 16 (1048576)
I1206 10:32:52.563073  2751 net.cpp:194] Memory required for data: 408420864
I1206 10:32:52.563086  2751 layer_factory.hpp:77] Creating layer conv3_2bn1
I1206 10:32:52.563098  2751 net.cpp:128] Creating Layer conv3_2bn1
I1206 10:32:52.563104  2751 net.cpp:558] conv3_2bn1 <- conv3_2_1
I1206 10:32:52.563113  2751 net.cpp:509] conv3_2bn1 -> conv3_2_1 (in-place)
I1206 10:32:52.563351  2751 net.cpp:172] Setting up conv3_2bn1
I1206 10:32:52.563362  2751 net.cpp:186] Top shape: 128 32 16 16 (1048576)
I1206 10:32:52.563366  2751 net.cpp:194] Memory required for data: 412615168
I1206 10:32:52.563376  2751 layer_factory.hpp:77] Creating layer conv3_2_scale1
I1206 10:32:52.563382  2751 net.cpp:128] Creating Layer conv3_2_scale1
I1206 10:32:52.563386  2751 net.cpp:558] conv3_2_scale1 <- conv3_2_1
I1206 10:32:52.563395  2751 net.cpp:509] conv3_2_scale1 -> conv3_2_1 (in-place)
I1206 10:32:52.563432  2751 layer_factory.hpp:77] Creating layer conv3_2_scale1
I1206 10:32:52.563568  2751 net.cpp:172] Setting up conv3_2_scale1
I1206 10:32:52.563580  2751 net.cpp:186] Top shape: 128 32 16 16 (1048576)
I1206 10:32:52.563583  2751 net.cpp:194] Memory required for data: 416809472
I1206 10:32:52.563591  2751 layer_factory.hpp:77] Creating layer conv3_Eltwise_2
I1206 10:32:52.563598  2751 net.cpp:128] Creating Layer conv3_Eltwise_2
I1206 10:32:52.563602  2751 net.cpp:558] conv3_Eltwise_2 <- conv3_Eltwise_1_conv3_1ReLU_1_0_split_1
I1206 10:32:52.563607  2751 net.cpp:558] conv3_Eltwise_2 <- conv3_2_1
I1206 10:32:52.563616  2751 net.cpp:522] conv3_Eltwise_2 -> conv3_Eltwise_2
I1206 10:32:52.563637  2751 net.cpp:172] Setting up conv3_Eltwise_2
I1206 10:32:52.563644  2751 net.cpp:186] Top shape: 128 32 16 16 (1048576)
I1206 10:32:52.563648  2751 net.cpp:194] Memory required for data: 421003776
I1206 10:32:52.563652  2751 layer_factory.hpp:77] Creating layer conv3_2ReLU_1
I1206 10:32:52.563658  2751 net.cpp:128] Creating Layer conv3_2ReLU_1
I1206 10:32:52.563665  2751 net.cpp:558] conv3_2ReLU_1 <- conv3_Eltwise_2
I1206 10:32:52.563670  2751 net.cpp:509] conv3_2ReLU_1 -> conv3_Eltwise_2 (in-place)
I1206 10:32:52.563946  2751 net.cpp:172] Setting up conv3_2ReLU_1
I1206 10:32:52.563962  2751 net.cpp:186] Top shape: 128 32 16 16 (1048576)
I1206 10:32:52.563967  2751 net.cpp:194] Memory required for data: 425198080
I1206 10:32:52.563972  2751 layer_factory.hpp:77] Creating layer conv3_Eltwise_2_conv3_2ReLU_1_0_split
I1206 10:32:52.563982  2751 net.cpp:128] Creating Layer conv3_Eltwise_2_conv3_2ReLU_1_0_split
I1206 10:32:52.563987  2751 net.cpp:558] conv3_Eltwise_2_conv3_2ReLU_1_0_split <- conv3_Eltwise_2
I1206 10:32:52.563993  2751 net.cpp:522] conv3_Eltwise_2_conv3_2ReLU_1_0_split -> conv3_Eltwise_2_conv3_2ReLU_1_0_split_0
I1206 10:32:52.564002  2751 net.cpp:522] conv3_Eltwise_2_conv3_2ReLU_1_0_split -> conv3_Eltwise_2_conv3_2ReLU_1_0_split_1
I1206 10:32:52.564054  2751 net.cpp:172] Setting up conv3_Eltwise_2_conv3_2ReLU_1_0_split
I1206 10:32:52.564060  2751 net.cpp:186] Top shape: 128 32 16 16 (1048576)
I1206 10:32:52.564066  2751 net.cpp:186] Top shape: 128 32 16 16 (1048576)
I1206 10:32:52.564070  2751 net.cpp:194] Memory required for data: 433586688
I1206 10:32:52.564074  2751 layer_factory.hpp:77] Creating layer conv3_3_0
I1206 10:32:52.564085  2751 net.cpp:128] Creating Layer conv3_3_0
I1206 10:32:52.564090  2751 net.cpp:558] conv3_3_0 <- conv3_Eltwise_2_conv3_2ReLU_1_0_split_0
I1206 10:32:52.564100  2751 net.cpp:522] conv3_3_0 -> conv3_3_0
I1206 10:32:52.565552  2751 net.cpp:172] Setting up conv3_3_0
I1206 10:32:52.565573  2751 net.cpp:186] Top shape: 128 32 16 16 (1048576)
I1206 10:32:52.565578  2751 net.cpp:194] Memory required for data: 437780992
I1206 10:32:52.565588  2751 layer_factory.hpp:77] Creating layer conv3_3_bn0
I1206 10:32:52.565621  2751 net.cpp:128] Creating Layer conv3_3_bn0
I1206 10:32:52.565629  2751 net.cpp:558] conv3_3_bn0 <- conv3_3_0
I1206 10:32:52.565639  2751 net.cpp:509] conv3_3_bn0 -> conv3_3_0 (in-place)
I1206 10:32:52.565884  2751 net.cpp:172] Setting up conv3_3_bn0
I1206 10:32:52.565896  2751 net.cpp:186] Top shape: 128 32 16 16 (1048576)
I1206 10:32:52.565899  2751 net.cpp:194] Memory required for data: 441975296
I1206 10:32:52.565909  2751 layer_factory.hpp:77] Creating layer conv3_3_scale0
I1206 10:32:52.565917  2751 net.cpp:128] Creating Layer conv3_3_scale0
I1206 10:32:52.565920  2751 net.cpp:558] conv3_3_scale0 <- conv3_3_0
I1206 10:32:52.565928  2751 net.cpp:509] conv3_3_scale0 -> conv3_3_0 (in-place)
I1206 10:32:52.565966  2751 layer_factory.hpp:77] Creating layer conv3_3_scale0
I1206 10:32:52.566151  2751 net.cpp:172] Setting up conv3_3_scale0
I1206 10:32:52.566164  2751 net.cpp:186] Top shape: 128 32 16 16 (1048576)
I1206 10:32:52.566169  2751 net.cpp:194] Memory required for data: 446169600
I1206 10:32:52.566176  2751 layer_factory.hpp:77] Creating layer conv3_3_ReLU0
I1206 10:32:52.566182  2751 net.cpp:128] Creating Layer conv3_3_ReLU0
I1206 10:32:52.566187  2751 net.cpp:558] conv3_3_ReLU0 <- conv3_3_0
I1206 10:32:52.566193  2751 net.cpp:509] conv3_3_ReLU0 -> conv3_3_0 (in-place)
I1206 10:32:52.566432  2751 net.cpp:172] Setting up conv3_3_ReLU0
I1206 10:32:52.566445  2751 net.cpp:186] Top shape: 128 32 16 16 (1048576)
I1206 10:32:52.566450  2751 net.cpp:194] Memory required for data: 450363904
I1206 10:32:52.566454  2751 layer_factory.hpp:77] Creating layer conv3_3_1
I1206 10:32:52.566468  2751 net.cpp:128] Creating Layer conv3_3_1
I1206 10:32:52.566473  2751 net.cpp:558] conv3_3_1 <- conv3_3_0
I1206 10:32:52.566481  2751 net.cpp:522] conv3_3_1 -> conv3_3_1
I1206 10:32:52.567896  2751 net.cpp:172] Setting up conv3_3_1
I1206 10:32:52.567919  2751 net.cpp:186] Top shape: 128 32 16 16 (1048576)
I1206 10:32:52.567924  2751 net.cpp:194] Memory required for data: 454558208
I1206 10:32:52.567935  2751 layer_factory.hpp:77] Creating layer conv3_3bn1
I1206 10:32:52.567956  2751 net.cpp:128] Creating Layer conv3_3bn1
I1206 10:32:52.567962  2751 net.cpp:558] conv3_3bn1 <- conv3_3_1
I1206 10:32:52.567970  2751 net.cpp:509] conv3_3bn1 -> conv3_3_1 (in-place)
I1206 10:32:52.568209  2751 net.cpp:172] Setting up conv3_3bn1
I1206 10:32:52.568222  2751 net.cpp:186] Top shape: 128 32 16 16 (1048576)
I1206 10:32:52.568236  2751 net.cpp:194] Memory required for data: 458752512
I1206 10:32:52.568246  2751 layer_factory.hpp:77] Creating layer conv3_3_scale1
I1206 10:32:52.568253  2751 net.cpp:128] Creating Layer conv3_3_scale1
I1206 10:32:52.568259  2751 net.cpp:558] conv3_3_scale1 <- conv3_3_1
I1206 10:32:52.568265  2751 net.cpp:509] conv3_3_scale1 -> conv3_3_1 (in-place)
I1206 10:32:52.568305  2751 layer_factory.hpp:77] Creating layer conv3_3_scale1
I1206 10:32:52.568444  2751 net.cpp:172] Setting up conv3_3_scale1
I1206 10:32:52.568457  2751 net.cpp:186] Top shape: 128 32 16 16 (1048576)
I1206 10:32:52.568461  2751 net.cpp:194] Memory required for data: 462946816
I1206 10:32:52.568470  2751 layer_factory.hpp:77] Creating layer conv3_Eltwise_3
I1206 10:32:52.568476  2751 net.cpp:128] Creating Layer conv3_Eltwise_3
I1206 10:32:52.568481  2751 net.cpp:558] conv3_Eltwise_3 <- conv3_Eltwise_2_conv3_2ReLU_1_0_split_1
I1206 10:32:52.568486  2751 net.cpp:558] conv3_Eltwise_3 <- conv3_3_1
I1206 10:32:52.568492  2751 net.cpp:522] conv3_Eltwise_3 -> conv3_Eltwise_3
I1206 10:32:52.568516  2751 net.cpp:172] Setting up conv3_Eltwise_3
I1206 10:32:52.568522  2751 net.cpp:186] Top shape: 128 32 16 16 (1048576)
I1206 10:32:52.568526  2751 net.cpp:194] Memory required for data: 467141120
I1206 10:32:52.568531  2751 layer_factory.hpp:77] Creating layer conv3_3ReLU_1
I1206 10:32:52.568536  2751 net.cpp:128] Creating Layer conv3_3ReLU_1
I1206 10:32:52.568540  2751 net.cpp:558] conv3_3ReLU_1 <- conv3_Eltwise_3
I1206 10:32:52.568548  2751 net.cpp:509] conv3_3ReLU_1 -> conv3_Eltwise_3 (in-place)
I1206 10:32:52.568986  2751 net.cpp:172] Setting up conv3_3ReLU_1
I1206 10:32:52.569007  2751 net.cpp:186] Top shape: 128 32 16 16 (1048576)
I1206 10:32:52.569012  2751 net.cpp:194] Memory required for data: 471335424
I1206 10:32:52.569017  2751 layer_factory.hpp:77] Creating layer conv3_Eltwise_3_conv3_3ReLU_1_0_split
I1206 10:32:52.569025  2751 net.cpp:128] Creating Layer conv3_Eltwise_3_conv3_3ReLU_1_0_split
I1206 10:32:52.569031  2751 net.cpp:558] conv3_Eltwise_3_conv3_3ReLU_1_0_split <- conv3_Eltwise_3
I1206 10:32:52.569041  2751 net.cpp:522] conv3_Eltwise_3_conv3_3ReLU_1_0_split -> conv3_Eltwise_3_conv3_3ReLU_1_0_split_0
I1206 10:32:52.569049  2751 net.cpp:522] conv3_Eltwise_3_conv3_3ReLU_1_0_split -> conv3_Eltwise_3_conv3_3ReLU_1_0_split_1
I1206 10:32:52.569100  2751 net.cpp:172] Setting up conv3_Eltwise_3_conv3_3ReLU_1_0_split
I1206 10:32:52.569110  2751 net.cpp:186] Top shape: 128 32 16 16 (1048576)
I1206 10:32:52.569116  2751 net.cpp:186] Top shape: 128 32 16 16 (1048576)
I1206 10:32:52.569120  2751 net.cpp:194] Memory required for data: 479724032
I1206 10:32:52.569124  2751 layer_factory.hpp:77] Creating layer conv4_1_0
I1206 10:32:52.569139  2751 net.cpp:128] Creating Layer conv4_1_0
I1206 10:32:52.569144  2751 net.cpp:558] conv4_1_0 <- conv3_Eltwise_3_conv3_3ReLU_1_0_split_0
I1206 10:32:52.569152  2751 net.cpp:522] conv4_1_0 -> conv4_1_0
I1206 10:32:52.572134  2751 net.cpp:172] Setting up conv4_1_0
I1206 10:32:52.572161  2751 net.cpp:186] Top shape: 128 64 8 8 (524288)
I1206 10:32:52.572165  2751 net.cpp:194] Memory required for data: 481821184
I1206 10:32:52.572177  2751 layer_factory.hpp:77] Creating layer conv4_1_bn0
I1206 10:32:52.572190  2751 net.cpp:128] Creating Layer conv4_1_bn0
I1206 10:32:52.572197  2751 net.cpp:558] conv4_1_bn0 <- conv4_1_0
I1206 10:32:52.572206  2751 net.cpp:509] conv4_1_bn0 -> conv4_1_0 (in-place)
I1206 10:32:52.572479  2751 net.cpp:172] Setting up conv4_1_bn0
I1206 10:32:52.572491  2751 net.cpp:186] Top shape: 128 64 8 8 (524288)
I1206 10:32:52.572496  2751 net.cpp:194] Memory required for data: 483918336
I1206 10:32:52.572506  2751 layer_factory.hpp:77] Creating layer conv4_1_scale0
I1206 10:32:52.572513  2751 net.cpp:128] Creating Layer conv4_1_scale0
I1206 10:32:52.572517  2751 net.cpp:558] conv4_1_scale0 <- conv4_1_0
I1206 10:32:52.572526  2751 net.cpp:509] conv4_1_scale0 -> conv4_1_0 (in-place)
I1206 10:32:52.572566  2751 layer_factory.hpp:77] Creating layer conv4_1_scale0
I1206 10:32:52.572711  2751 net.cpp:172] Setting up conv4_1_scale0
I1206 10:32:52.572721  2751 net.cpp:186] Top shape: 128 64 8 8 (524288)
I1206 10:32:52.572724  2751 net.cpp:194] Memory required for data: 486015488
I1206 10:32:52.572732  2751 layer_factory.hpp:77] Creating layer conv4_1_ReLU0
I1206 10:32:52.572739  2751 net.cpp:128] Creating Layer conv4_1_ReLU0
I1206 10:32:52.572743  2751 net.cpp:558] conv4_1_ReLU0 <- conv4_1_0
I1206 10:32:52.572749  2751 net.cpp:509] conv4_1_ReLU0 -> conv4_1_0 (in-place)
I1206 10:32:52.572988  2751 net.cpp:172] Setting up conv4_1_ReLU0
I1206 10:32:52.573001  2751 net.cpp:186] Top shape: 128 64 8 8 (524288)
I1206 10:32:52.573006  2751 net.cpp:194] Memory required for data: 488112640
I1206 10:32:52.573010  2751 layer_factory.hpp:77] Creating layer conv4_1_1
I1206 10:32:52.573024  2751 net.cpp:128] Creating Layer conv4_1_1
I1206 10:32:52.573032  2751 net.cpp:558] conv4_1_1 <- conv4_1_0
I1206 10:32:52.573042  2751 net.cpp:522] conv4_1_1 -> conv4_1_1
I1206 10:32:52.575034  2751 net.cpp:172] Setting up conv4_1_1
I1206 10:32:52.575057  2751 net.cpp:186] Top shape: 128 64 8 8 (524288)
I1206 10:32:52.575060  2751 net.cpp:194] Memory required for data: 490209792
I1206 10:32:52.575074  2751 layer_factory.hpp:77] Creating layer conv4_1bn1
I1206 10:32:52.575089  2751 net.cpp:128] Creating Layer conv4_1bn1
I1206 10:32:52.575103  2751 net.cpp:558] conv4_1bn1 <- conv4_1_1
I1206 10:32:52.575111  2751 net.cpp:509] conv4_1bn1 -> conv4_1_1 (in-place)
I1206 10:32:52.575369  2751 net.cpp:172] Setting up conv4_1bn1
I1206 10:32:52.575379  2751 net.cpp:186] Top shape: 128 64 8 8 (524288)
I1206 10:32:52.575402  2751 net.cpp:194] Memory required for data: 492306944
I1206 10:32:52.575412  2751 layer_factory.hpp:77] Creating layer conv4_1_scale1
I1206 10:32:52.575423  2751 net.cpp:128] Creating Layer conv4_1_scale1
I1206 10:32:52.575426  2751 net.cpp:558] conv4_1_scale1 <- conv4_1_1
I1206 10:32:52.575433  2751 net.cpp:509] conv4_1_scale1 -> conv4_1_1 (in-place)
I1206 10:32:52.575475  2751 layer_factory.hpp:77] Creating layer conv4_1_scale1
I1206 10:32:52.575623  2751 net.cpp:172] Setting up conv4_1_scale1
I1206 10:32:52.575635  2751 net.cpp:186] Top shape: 128 64 8 8 (524288)
I1206 10:32:52.575640  2751 net.cpp:194] Memory required for data: 494404096
I1206 10:32:52.575649  2751 layer_factory.hpp:77] Creating layer conv4_1_down
I1206 10:32:52.575662  2751 net.cpp:128] Creating Layer conv4_1_down
I1206 10:32:52.575667  2751 net.cpp:558] conv4_1_down <- conv3_Eltwise_3_conv3_3ReLU_1_0_split_1
I1206 10:32:52.575678  2751 net.cpp:522] conv4_1_down -> conv4_1_down
I1206 10:32:52.577138  2751 net.cpp:172] Setting up conv4_1_down
I1206 10:32:52.577165  2751 net.cpp:186] Top shape: 128 64 8 8 (524288)
I1206 10:32:52.577170  2751 net.cpp:194] Memory required for data: 496501248
I1206 10:32:52.577180  2751 layer_factory.hpp:77] Creating layer conv4_1_bn_down
I1206 10:32:52.577189  2751 net.cpp:128] Creating Layer conv4_1_bn_down
I1206 10:32:52.577198  2751 net.cpp:558] conv4_1_bn_down <- conv4_1_down
I1206 10:32:52.577208  2751 net.cpp:509] conv4_1_bn_down -> conv4_1_down (in-place)
I1206 10:32:52.577498  2751 net.cpp:172] Setting up conv4_1_bn_down
I1206 10:32:52.577512  2751 net.cpp:186] Top shape: 128 64 8 8 (524288)
I1206 10:32:52.577517  2751 net.cpp:194] Memory required for data: 498598400
I1206 10:32:52.577527  2751 layer_factory.hpp:77] Creating layer conv4_1_scale_down
I1206 10:32:52.577535  2751 net.cpp:128] Creating Layer conv4_1_scale_down
I1206 10:32:52.577540  2751 net.cpp:558] conv4_1_scale_down <- conv4_1_down
I1206 10:32:52.577545  2751 net.cpp:509] conv4_1_scale_down -> conv4_1_down (in-place)
I1206 10:32:52.577589  2751 layer_factory.hpp:77] Creating layer conv4_1_scale_down
I1206 10:32:52.577739  2751 net.cpp:172] Setting up conv4_1_scale_down
I1206 10:32:52.577745  2751 net.cpp:186] Top shape: 128 64 8 8 (524288)
I1206 10:32:52.577749  2751 net.cpp:194] Memory required for data: 500695552
I1206 10:32:52.577757  2751 layer_factory.hpp:77] Creating layer conv4_Eltwise_1
I1206 10:32:52.577767  2751 net.cpp:128] Creating Layer conv4_Eltwise_1
I1206 10:32:52.577772  2751 net.cpp:558] conv4_Eltwise_1 <- conv4_1_1
I1206 10:32:52.577777  2751 net.cpp:558] conv4_Eltwise_1 <- conv4_1_down
I1206 10:32:52.577783  2751 net.cpp:522] conv4_Eltwise_1 -> conv4_Eltwise_1
I1206 10:32:52.577808  2751 net.cpp:172] Setting up conv4_Eltwise_1
I1206 10:32:52.577816  2751 net.cpp:186] Top shape: 128 64 8 8 (524288)
I1206 10:32:52.577819  2751 net.cpp:194] Memory required for data: 502792704
I1206 10:32:52.577823  2751 layer_factory.hpp:77] Creating layer conv4_1ReLU_1
I1206 10:32:52.577829  2751 net.cpp:128] Creating Layer conv4_1ReLU_1
I1206 10:32:52.577833  2751 net.cpp:558] conv4_1ReLU_1 <- conv4_Eltwise_1
I1206 10:32:52.577841  2751 net.cpp:509] conv4_1ReLU_1 -> conv4_Eltwise_1 (in-place)
I1206 10:32:52.578073  2751 net.cpp:172] Setting up conv4_1ReLU_1
I1206 10:32:52.578089  2751 net.cpp:186] Top shape: 128 64 8 8 (524288)
I1206 10:32:52.578094  2751 net.cpp:194] Memory required for data: 504889856
I1206 10:32:52.578099  2751 layer_factory.hpp:77] Creating layer conv4_Eltwise_1_conv4_1ReLU_1_0_split
I1206 10:32:52.578105  2751 net.cpp:128] Creating Layer conv4_Eltwise_1_conv4_1ReLU_1_0_split
I1206 10:32:52.578110  2751 net.cpp:558] conv4_Eltwise_1_conv4_1ReLU_1_0_split <- conv4_Eltwise_1
I1206 10:32:52.578119  2751 net.cpp:522] conv4_Eltwise_1_conv4_1ReLU_1_0_split -> conv4_Eltwise_1_conv4_1ReLU_1_0_split_0
I1206 10:32:52.578128  2751 net.cpp:522] conv4_Eltwise_1_conv4_1ReLU_1_0_split -> conv4_Eltwise_1_conv4_1ReLU_1_0_split_1
I1206 10:32:52.578183  2751 net.cpp:172] Setting up conv4_Eltwise_1_conv4_1ReLU_1_0_split
I1206 10:32:52.578234  2751 net.cpp:186] Top shape: 128 64 8 8 (524288)
I1206 10:32:52.578245  2751 net.cpp:186] Top shape: 128 64 8 8 (524288)
I1206 10:32:52.578249  2751 net.cpp:194] Memory required for data: 509084160
I1206 10:32:52.578253  2751 layer_factory.hpp:77] Creating layer conv4_2_0
I1206 10:32:52.578266  2751 net.cpp:128] Creating Layer conv4_2_0
I1206 10:32:52.578271  2751 net.cpp:558] conv4_2_0 <- conv4_Eltwise_1_conv4_1ReLU_1_0_split_0
I1206 10:32:52.578280  2751 net.cpp:522] conv4_2_0 -> conv4_2_0
I1206 10:32:52.580260  2751 net.cpp:172] Setting up conv4_2_0
I1206 10:32:52.580286  2751 net.cpp:186] Top shape: 128 64 8 8 (524288)
I1206 10:32:52.580291  2751 net.cpp:194] Memory required for data: 511181312
I1206 10:32:52.580301  2751 layer_factory.hpp:77] Creating layer conv4_2_bn0
I1206 10:32:52.580315  2751 net.cpp:128] Creating Layer conv4_2_bn0
I1206 10:32:52.580322  2751 net.cpp:558] conv4_2_bn0 <- conv4_2_0
I1206 10:32:52.580329  2751 net.cpp:509] conv4_2_bn0 -> conv4_2_0 (in-place)
I1206 10:32:52.580582  2751 net.cpp:172] Setting up conv4_2_bn0
I1206 10:32:52.580592  2751 net.cpp:186] Top shape: 128 64 8 8 (524288)
I1206 10:32:52.580596  2751 net.cpp:194] Memory required for data: 513278464
I1206 10:32:52.580606  2751 layer_factory.hpp:77] Creating layer conv4_2_scale0
I1206 10:32:52.580613  2751 net.cpp:128] Creating Layer conv4_2_scale0
I1206 10:32:52.580617  2751 net.cpp:558] conv4_2_scale0 <- conv4_2_0
I1206 10:32:52.580623  2751 net.cpp:509] conv4_2_scale0 -> conv4_2_0 (in-place)
I1206 10:32:52.580664  2751 layer_factory.hpp:77] Creating layer conv4_2_scale0
I1206 10:32:52.580812  2751 net.cpp:172] Setting up conv4_2_scale0
I1206 10:32:52.580821  2751 net.cpp:186] Top shape: 128 64 8 8 (524288)
I1206 10:32:52.580826  2751 net.cpp:194] Memory required for data: 515375616
I1206 10:32:52.580833  2751 layer_factory.hpp:77] Creating layer conv4_2_ReLU0
I1206 10:32:52.580842  2751 net.cpp:128] Creating Layer conv4_2_ReLU0
I1206 10:32:52.580849  2751 net.cpp:558] conv4_2_ReLU0 <- conv4_2_0
I1206 10:32:52.580855  2751 net.cpp:509] conv4_2_ReLU0 -> conv4_2_0 (in-place)
I1206 10:32:52.581281  2751 net.cpp:172] Setting up conv4_2_ReLU0
I1206 10:32:52.581301  2751 net.cpp:186] Top shape: 128 64 8 8 (524288)
I1206 10:32:52.581305  2751 net.cpp:194] Memory required for data: 517472768
I1206 10:32:52.581311  2751 layer_factory.hpp:77] Creating layer conv4_2_1
I1206 10:32:52.581328  2751 net.cpp:128] Creating Layer conv4_2_1
I1206 10:32:52.581336  2751 net.cpp:558] conv4_2_1 <- conv4_2_0
I1206 10:32:52.581346  2751 net.cpp:522] conv4_2_1 -> conv4_2_1
I1206 10:32:52.583353  2751 net.cpp:172] Setting up conv4_2_1
I1206 10:32:52.583379  2751 net.cpp:186] Top shape: 128 64 8 8 (524288)
I1206 10:32:52.583384  2751 net.cpp:194] Memory required for data: 519569920
I1206 10:32:52.583398  2751 layer_factory.hpp:77] Creating layer conv4_2bn1
I1206 10:32:52.583410  2751 net.cpp:128] Creating Layer conv4_2bn1
I1206 10:32:52.583415  2751 net.cpp:558] conv4_2bn1 <- conv4_2_1
I1206 10:32:52.583423  2751 net.cpp:509] conv4_2bn1 -> conv4_2_1 (in-place)
I1206 10:32:52.583685  2751 net.cpp:172] Setting up conv4_2bn1
I1206 10:32:52.583698  2751 net.cpp:186] Top shape: 128 64 8 8 (524288)
I1206 10:32:52.583701  2751 net.cpp:194] Memory required for data: 521667072
I1206 10:32:52.583725  2751 layer_factory.hpp:77] Creating layer conv4_2_scale1
I1206 10:32:52.583732  2751 net.cpp:128] Creating Layer conv4_2_scale1
I1206 10:32:52.583737  2751 net.cpp:558] conv4_2_scale1 <- conv4_2_1
I1206 10:32:52.583744  2751 net.cpp:509] conv4_2_scale1 -> conv4_2_1 (in-place)
I1206 10:32:52.583786  2751 layer_factory.hpp:77] Creating layer conv4_2_scale1
I1206 10:32:52.583928  2751 net.cpp:172] Setting up conv4_2_scale1
I1206 10:32:52.583938  2751 net.cpp:186] Top shape: 128 64 8 8 (524288)
I1206 10:32:52.583942  2751 net.cpp:194] Memory required for data: 523764224
I1206 10:32:52.583950  2751 layer_factory.hpp:77] Creating layer conv4_Eltwise_2
I1206 10:32:52.583959  2751 net.cpp:128] Creating Layer conv4_Eltwise_2
I1206 10:32:52.583964  2751 net.cpp:558] conv4_Eltwise_2 <- conv4_Eltwise_1_conv4_1ReLU_1_0_split_1
I1206 10:32:52.583989  2751 net.cpp:558] conv4_Eltwise_2 <- conv4_2_1
I1206 10:32:52.583999  2751 net.cpp:522] conv4_Eltwise_2 -> conv4_Eltwise_2
I1206 10:32:52.584022  2751 net.cpp:172] Setting up conv4_Eltwise_2
I1206 10:32:52.584029  2751 net.cpp:186] Top shape: 128 64 8 8 (524288)
I1206 10:32:52.584033  2751 net.cpp:194] Memory required for data: 525861376
I1206 10:32:52.584038  2751 layer_factory.hpp:77] Creating layer conv4_2ReLU_1
I1206 10:32:52.584043  2751 net.cpp:128] Creating Layer conv4_2ReLU_1
I1206 10:32:52.584048  2751 net.cpp:558] conv4_2ReLU_1 <- conv4_Eltwise_2
I1206 10:32:52.584054  2751 net.cpp:509] conv4_2ReLU_1 -> conv4_Eltwise_2 (in-place)
I1206 10:32:52.584306  2751 net.cpp:172] Setting up conv4_2ReLU_1
I1206 10:32:52.584322  2751 net.cpp:186] Top shape: 128 64 8 8 (524288)
I1206 10:32:52.584326  2751 net.cpp:194] Memory required for data: 527958528
I1206 10:32:52.584331  2751 layer_factory.hpp:77] Creating layer conv4_Eltwise_2_conv4_2ReLU_1_0_split
I1206 10:32:52.584338  2751 net.cpp:128] Creating Layer conv4_Eltwise_2_conv4_2ReLU_1_0_split
I1206 10:32:52.584343  2751 net.cpp:558] conv4_Eltwise_2_conv4_2ReLU_1_0_split <- conv4_Eltwise_2
I1206 10:32:52.584352  2751 net.cpp:522] conv4_Eltwise_2_conv4_2ReLU_1_0_split -> conv4_Eltwise_2_conv4_2ReLU_1_0_split_0
I1206 10:32:52.584360  2751 net.cpp:522] conv4_Eltwise_2_conv4_2ReLU_1_0_split -> conv4_Eltwise_2_conv4_2ReLU_1_0_split_1
I1206 10:32:52.584412  2751 net.cpp:172] Setting up conv4_Eltwise_2_conv4_2ReLU_1_0_split
I1206 10:32:52.584419  2751 net.cpp:186] Top shape: 128 64 8 8 (524288)
I1206 10:32:52.584425  2751 net.cpp:186] Top shape: 128 64 8 8 (524288)
I1206 10:32:52.584429  2751 net.cpp:194] Memory required for data: 532152832
I1206 10:32:52.584434  2751 layer_factory.hpp:77] Creating layer conv4_3_0
I1206 10:32:52.584445  2751 net.cpp:128] Creating Layer conv4_3_0
I1206 10:32:52.584450  2751 net.cpp:558] conv4_3_0 <- conv4_Eltwise_2_conv4_2ReLU_1_0_split_0
I1206 10:32:52.584458  2751 net.cpp:522] conv4_3_0 -> conv4_3_0
I1206 10:32:52.586287  2751 net.cpp:172] Setting up conv4_3_0
I1206 10:32:52.586304  2751 net.cpp:186] Top shape: 128 64 8 8 (524288)
I1206 10:32:52.586308  2751 net.cpp:194] Memory required for data: 534249984
I1206 10:32:52.586318  2751 layer_factory.hpp:77] Creating layer conv4_3_bn0
I1206 10:32:52.586328  2751 net.cpp:128] Creating Layer conv4_3_bn0
I1206 10:32:52.586333  2751 net.cpp:558] conv4_3_bn0 <- conv4_3_0
I1206 10:32:52.586340  2751 net.cpp:509] conv4_3_bn0 -> conv4_3_0 (in-place)
I1206 10:32:52.586592  2751 net.cpp:172] Setting up conv4_3_bn0
I1206 10:32:52.586599  2751 net.cpp:186] Top shape: 128 64 8 8 (524288)
I1206 10:32:52.586603  2751 net.cpp:194] Memory required for data: 536347136
I1206 10:32:52.586612  2751 layer_factory.hpp:77] Creating layer conv4_3_scale0
I1206 10:32:52.586619  2751 net.cpp:128] Creating Layer conv4_3_scale0
I1206 10:32:52.586623  2751 net.cpp:558] conv4_3_scale0 <- conv4_3_0
I1206 10:32:52.586628  2751 net.cpp:509] conv4_3_scale0 -> conv4_3_0 (in-place)
I1206 10:32:52.586673  2751 layer_factory.hpp:77] Creating layer conv4_3_scale0
I1206 10:32:52.586817  2751 net.cpp:172] Setting up conv4_3_scale0
I1206 10:32:52.586823  2751 net.cpp:186] Top shape: 128 64 8 8 (524288)
I1206 10:32:52.586827  2751 net.cpp:194] Memory required for data: 538444288
I1206 10:32:52.586834  2751 layer_factory.hpp:77] Creating layer conv4_3_ReLU0
I1206 10:32:52.586843  2751 net.cpp:128] Creating Layer conv4_3_ReLU0
I1206 10:32:52.586848  2751 net.cpp:558] conv4_3_ReLU0 <- conv4_3_0
I1206 10:32:52.586853  2751 net.cpp:509] conv4_3_ReLU0 -> conv4_3_0 (in-place)
I1206 10:32:52.587090  2751 net.cpp:172] Setting up conv4_3_ReLU0
I1206 10:32:52.587100  2751 net.cpp:186] Top shape: 128 64 8 8 (524288)
I1206 10:32:52.587105  2751 net.cpp:194] Memory required for data: 540541440
I1206 10:32:52.587110  2751 layer_factory.hpp:77] Creating layer conv4_3_1
I1206 10:32:52.587122  2751 net.cpp:128] Creating Layer conv4_3_1
I1206 10:32:52.587127  2751 net.cpp:558] conv4_3_1 <- conv4_3_0
I1206 10:32:52.587153  2751 net.cpp:522] conv4_3_1 -> conv4_3_1
I1206 10:32:52.589195  2751 net.cpp:172] Setting up conv4_3_1
I1206 10:32:52.589223  2751 net.cpp:186] Top shape: 128 64 8 8 (524288)
I1206 10:32:52.589228  2751 net.cpp:194] Memory required for data: 542638592
I1206 10:32:52.589242  2751 layer_factory.hpp:77] Creating layer conv4_3bn1
I1206 10:32:52.589252  2751 net.cpp:128] Creating Layer conv4_3bn1
I1206 10:32:52.589258  2751 net.cpp:558] conv4_3bn1 <- conv4_3_1
I1206 10:32:52.589267  2751 net.cpp:509] conv4_3bn1 -> conv4_3_1 (in-place)
I1206 10:32:52.589534  2751 net.cpp:172] Setting up conv4_3bn1
I1206 10:32:52.589543  2751 net.cpp:186] Top shape: 128 64 8 8 (524288)
I1206 10:32:52.589548  2751 net.cpp:194] Memory required for data: 544735744
I1206 10:32:52.589557  2751 layer_factory.hpp:77] Creating layer conv4_3_scale1
I1206 10:32:52.589565  2751 net.cpp:128] Creating Layer conv4_3_scale1
I1206 10:32:52.589570  2751 net.cpp:558] conv4_3_scale1 <- conv4_3_1
I1206 10:32:52.589576  2751 net.cpp:509] conv4_3_scale1 -> conv4_3_1 (in-place)
I1206 10:32:52.589617  2751 layer_factory.hpp:77] Creating layer conv4_3_scale1
I1206 10:32:52.589767  2751 net.cpp:172] Setting up conv4_3_scale1
I1206 10:32:52.589777  2751 net.cpp:186] Top shape: 128 64 8 8 (524288)
I1206 10:32:52.589782  2751 net.cpp:194] Memory required for data: 546832896
I1206 10:32:52.589789  2751 layer_factory.hpp:77] Creating layer conv4_Eltwise_3
I1206 10:32:52.589798  2751 net.cpp:128] Creating Layer conv4_Eltwise_3
I1206 10:32:52.589803  2751 net.cpp:558] conv4_Eltwise_3 <- conv4_Eltwise_2_conv4_2ReLU_1_0_split_1
I1206 10:32:52.589808  2751 net.cpp:558] conv4_Eltwise_3 <- conv4_3_1
I1206 10:32:52.589817  2751 net.cpp:522] conv4_Eltwise_3 -> conv4_Eltwise_3
I1206 10:32:52.589838  2751 net.cpp:172] Setting up conv4_Eltwise_3
I1206 10:32:52.589844  2751 net.cpp:186] Top shape: 128 64 8 8 (524288)
I1206 10:32:52.589848  2751 net.cpp:194] Memory required for data: 548930048
I1206 10:32:52.589853  2751 layer_factory.hpp:77] Creating layer conv4_3ReLU_1
I1206 10:32:52.589859  2751 net.cpp:128] Creating Layer conv4_3ReLU_1
I1206 10:32:52.589864  2751 net.cpp:558] conv4_3ReLU_1 <- conv4_Eltwise_3
I1206 10:32:52.589871  2751 net.cpp:509] conv4_3ReLU_1 -> conv4_Eltwise_3 (in-place)
I1206 10:32:52.590108  2751 net.cpp:172] Setting up conv4_3ReLU_1
I1206 10:32:52.590123  2751 net.cpp:186] Top shape: 128 64 8 8 (524288)
I1206 10:32:52.590127  2751 net.cpp:194] Memory required for data: 551027200
I1206 10:32:52.590132  2751 layer_factory.hpp:77] Creating layer Pooling1
I1206 10:32:52.590140  2751 net.cpp:128] Creating Layer Pooling1
I1206 10:32:52.590145  2751 net.cpp:558] Pooling1 <- conv4_Eltwise_3
I1206 10:32:52.590153  2751 net.cpp:522] Pooling1 -> Pooling1
I1206 10:32:52.590653  2751 net.cpp:172] Setting up Pooling1
I1206 10:32:52.590670  2751 net.cpp:186] Top shape: 128 64 1 1 (8192)
I1206 10:32:52.590674  2751 net.cpp:194] Memory required for data: 551059968
I1206 10:32:52.590678  2751 layer_factory.hpp:77] Creating layer fc1
I1206 10:32:52.590693  2751 net.cpp:128] Creating Layer fc1
I1206 10:32:52.590699  2751 net.cpp:558] fc1 <- Pooling1
I1206 10:32:52.590708  2751 net.cpp:522] fc1 -> fc1
I1206 10:32:52.592013  2751 net.cpp:172] Setting up fc1
I1206 10:32:52.592036  2751 net.cpp:186] Top shape: 128 10 1 1 (1280)
I1206 10:32:52.592039  2751 net.cpp:194] Memory required for data: 551065088
I1206 10:32:52.592049  2751 layer_factory.hpp:77] Creating layer Softmax1
I1206 10:32:52.592061  2751 net.cpp:128] Creating Layer Softmax1
I1206 10:32:52.592065  2751 net.cpp:558] Softmax1 <- fc1
I1206 10:32:52.592072  2751 net.cpp:558] Softmax1 <- label
I1206 10:32:52.592080  2751 net.cpp:522] Softmax1 -> Softmax1
…
I1206 10:32:52.594353  2751 solver.cpp:277] Creating test net (#0) specified by test_net file: ./test_ResNet_20.prototxt
I1206 10:32:52.595114  2751 net.cpp:82] Initializing net from parameters: 
name: "ResNet-20"
state {
  phase: TEST
}
layer {
  name: "Data1"
  type: "Data"
  top: "data"
  top: "label"
  transform_param {
    scale: 0.00390625
    mirror: false
    mean_value: 125.3
    mean_value: 122.9
    mean_value: 113.8
  }
  data_param {
    source: "/home/lijianfei/datasets/cifar10_40/test_lmdb"
    batch_size: 10
    backend: LMDB
  }
  image_data_param {
    shuffle: false
  }
}
layer {
  name: "conv1"
  type: "Convolution"
  bottom: "data"
  top: "conv1"
  param {
    lr_mult: 1
    decay_mult: 1
  }
  param {
    lr_mult: 2
    decay_mult: 0
  }
  convolution_param {
    num_output: 16
    bias_term: true
    pad: 1
    kernel_size: 3
    stride: 1
    weight_filler {
      type: "msra"
    }
    bias_filler {
      type: "constant"
      value: 0
    }
  }
}
layer {
  name: "conv1/bn"
  type: "BatchNorm"
  bottom: "conv1"
  top: "conv1"
  param {
    lr_mult: 0
    decay_mult: 0
  }
  param {
    lr_mult: 0
    decay_mult: 0
  }
  param {
    lr_mult: 0
    decay_mult: 0
  }
  batch_norm_param {
    use_global_stats: true
  }
}
layer {
  name: "conv1/scale"
  type: "Scale"
  bottom: "conv1"
  top: "conv1"
  scale_param {
    bias_term: true
  }
}
layer {
  name: "conv1/ReLU"
  type: "ReLU"
  bottom: "conv1"
  top: "conv1"
}
layer {
  name: "conv2_1_0"
  type: "Convolution"
  bottom: "conv1"
  top: "conv2_1_0"
  param {
    lr_mult: 1
    decay_mult: 1
  }
  param {
    lr_mult: 2
    decay_mult: 0
  }
  convolution_param {
    num_output: 16
    bias_term: true
    pad: 1
    kernel_size: 3
    stride: 1
    weight_filler {
      type: "msra"
    }
    bias_filler {
      type: "constant"
      value: 0
    }
  }
}
layer {
  name: "conv2_1_bn0"
  type: "BatchNorm"
  bottom: "conv2_1_0"
  top: "conv2_1_0"
  param {
    lr_mult: 0
    decay_mult: 0
  }
  param {
    lr_mult: 0
    decay_mult: 0
  }
  param {
    lr_mult: 0
    decay_mult: 0
  }
  batch_norm_param {
    use_global_stats: true
  }
}
layer {
  name: "conv2_1_scale0"
  type: "Scale"
  bottom: "conv2_1_0"
  top: "conv2_1_0"
  scale_param {
    bias_term: true
  }
}
layer {
  name: "conv2_1_ReLU0"
  type: "ReLU"
  bottom: "conv2_1_0"
  top: "conv2_1_0"
}
layer {
  name: "conv2_1_1"
  type: "Convolution"
  bottom: "conv2_1_0"
  top: "conv2_1_1"
  param {
    lr_mult: 1
    decay_mult: 1
  }
  param {
    lr_mult: 2
    decay_mult: 0
  }
  convolution_param {
    num_output: 16
    bias_term: true
    pad: 1
    kernel_size: 3
    stride: 1
    weight_filler {
      type: "msra"
    }
    bias_filler {
      type: "constant"
      value: 0
    }
  }
}
layer {
  name: "conv2_1bn1"
  type: "BatchNorm"
  bottom: "conv2_1_1"
  top: "conv2_1_1"
  param {
    lr_mult: 0
    decay_mult: 0
  }
  param {
    lr_mult: 0
    decay_mult: 0
  }
  param {
    lr_mult: 0
    decay_mult: 0
  }
  batch_norm_param {
    use_global_stats: true
  }
}
layer {
  name: "conv2_1_scale1"
  type: "Scale"
  bottom: "conv2_1_1"
  top: "conv2_1_1"
  scale_param {
    bias_term: true
  }
}
layer {
  name: "conv2_Eltwise_1"
  type: "Eltwise"
  bottom: "conv1"
  bottom: "conv2_1_1"
  top: "conv2_Eltwise_1"
  eltwise_param {
    operation: SUM
  }
}
layer {
  name: "conv2_1ReLU_1"
  type: "ReLU"
  bottom: "conv2_Eltwise_1"
  top: "conv2_Eltwise_1"
}
layer {
  name: "conv2_2_0"
  type: "Convolution"
  bottom: "conv2_Eltwise_1"
  top: "conv2_2_0"
  param {
    lr_mult: 1
    decay_mult: 1
  }
  param {
    lr_mult: 2
    decay_mult: 0
  }
  convolution_param {
    num_output: 16
    bias_term: true
    pad: 1
    kernel_size: 3
    stride: 1
    weight_filler {
      type: "msra"
    }
    bias_filler {
      type: "constant"
      value: 0
    }
  }
}
layer {
  name: "conv2_2_bn0"
  type: "BatchNorm"
  bottom: "conv2_2_0"
  top: "conv2_2_0"
  param {
    lr_mult: 0
    decay_mult: 0
  }
  param {
    lr_mult: 0
    decay_mult: 0
  }
  param {
    lr_mult: 0
    decay_mult: 0
  }
  batch_norm_param {
    use_global_stats: true
  }
}
layer {
  name: "conv2_2_scale0"
  type: "Scale"
  bottom: "conv2_2_0"
  top: "conv2_2_0"
  scale_param {
    bias_term: true
  }
}
layer {
  name: "conv2_2_ReLU0"
  type: "ReLU"
  bottom: "conv2_2_0"
  top: "conv2_2_0"
}
layer {
  name: "conv2_2_1"
  type: "Convolution"
  bottom: "conv2_2_0"
  top: "conv2_2_1"
  param {
    lr_mult: 1
    decay_mult: 1
  }
  param {
    lr_mult: 2
    decay_mult: 0
  }
  convolution_param {
    num_output: 16
    bias_term: true
    pad: 1
    kernel_size: 3
    stride: 1
    weight_filler {
      type: "msra"
    }
    bias_filler {
      type: "constant"
      value: 0
    }
  }
}
layer {
  name: "conv2_2bn1"
  type: "BatchNorm"
  bottom: "conv2_2_1"
  top: "conv2_2_1"
  param {
    lr_mult: 0
    decay_mult: 0
  }
  param {
    lr_mult: 0
    decay_mult: 0
  }
  param {
    lr_mult: 0
    decay_mult: 0
  }
  batch_norm_param {
    use_global_stats: true
  }
}
layer {
  name: "conv2_2_scale1"
  type: "Scale"
  bottom: "conv2_2_1"
  top: "conv2_2_1"
  scale_param {
    bias_term: true
  }
}
layer {
  name: "conv2_Eltwise_2"
  type: "Eltwise"
  bottom: "conv2_Eltwise_1"
  bottom: "conv2_2_1"
  top: "conv2_Eltwise_2"
  eltwise_param {
    operation: SUM
  }
}
layer {
  name: "conv2_2ReLU_1"
  type: "ReLU"
  bottom: "conv2_Eltwise_2"
  top: "conv2_Eltwise_2"
}
layer {
  name: "conv2_3_0"
  type: "Convolution"
  bottom: "conv2_Eltwise_2"
  top: "conv2_3_0"
  param {
    lr_mult: 1
    decay_mult: 1
  }
  param {
    lr_mult: 2
    decay_mult: 0
  }
  convolution_param {
    num_output: 16
    bias_term: true
    pad: 1
    kernel_size: 3
    stride: 1
    weight_filler {
      type: "msra"
    }
    bias_filler {
      type: "constant"
      value: 0
    }
  }
}
layer {
  name: "conv2_3_bn0"
  type: "BatchNorm"
  bottom: "conv2_3_0"
  top: "conv2_3_0"
  param {
    lr_mult: 0
    decay_mult: 0
  }
  param {
    lr_mult: 0
    decay_mult: 0
  }
  param {
    lr_mult: 0
    decay_mult: 0
  }
  batch_norm_param {
    use_global_stats: true
  }
}
layer {
  name: "conv2_3_scale0"
  type: "Scale"
  bottom: "conv2_3_0"
  top: "conv2_3_0"
  scale_param {
    bias_term: true
  }
}
layer {
  name: "conv2_3_ReLU0"
  type: "ReLU"
  bottom: "conv2_3_0"
  top: "conv2_3_0"
}
layer {
  name: "conv2_3_1"
  type: "Convolution"
  bottom: "conv2_3_0"
  top: "conv2_3_1"
  param {
    lr_mult: 1
    decay_mult: 1
  }
  param {
    lr_mult: 2
    decay_mult: 0
  }
  convolution_param {
    num_output: 16
    bias_term: true
    pad: 1
    kernel_size: 3
    stride: 1
    weight_filler {
      type: "msra"
    }
    bias_filler {
      type: "constant"
      value: 0
    }
  }
}
layer {
  name: "conv2_3bn1"
  type: "BatchNorm"
  bottom: "conv2_3_1"
  top: "conv2_3_1"
  param {
    lr_mult: 0
    decay_mult: 0
  }
  param {
    lr_mult: 0
    decay_mult: 0
  }
  param {
    lr_mult: 0
    decay_mult: 0
  }
  batch_norm_param {
    use_global_stats: true
  }
}
layer {
  name: "conv2_3_scale1"
  type: "Scale"
  bottom: "conv2_3_1"
  top: "conv2_3_1"
  scale_param {
    bias_term: true
  }
}
layer {
  name: "conv2_Eltwise_3"
  type: "Eltwise"
  bottom: "conv2_Eltwise_2"
  bottom: "conv2_3_1"
  top: "conv2_Eltwise_3"
  eltwise_param {
    operation: SUM
  }
}
layer {
  name: "conv2_3ReLU_1"
  type: "ReLU"
  bottom: "conv2_Eltwise_3"
  top: "conv2_Eltwise_3"
}
layer {
  name: "conv3_1_0"
  type: "Convolution"
  bottom: "conv2_Eltwise_3"
  top: "conv3_1_0"
  param {
    lr_mult: 1
    decay_mult: 1
  }
  param {
    lr_mult: 2
    decay_mult: 0
  }
  convolution_param {
    num_output: 32
    bias_term: true
    pad: 1
    kernel_size: 3
    stride: 2
    weight_filler {
      type: "msra"
    }
    bias_filler {
      type: "constant"
      value: 0
    }
  }
}
layer {
  name: "conv3_1_bn0"
  type: "BatchNorm"
  bottom: "conv3_1_0"
  top: "conv3_1_0"
  param {
    lr_mult: 0
    decay_mult: 0
  }
  param {
    lr_mult: 0
    decay_mult: 0
  }
  param {
    lr_mult: 0
    decay_mult: 0
  }
  batch_norm_param {
    use_global_stats: true
  }
}
layer {
  name: "conv3_1_scale0"
  type: "Scale"
  bottom: "conv3_1_0"
  top: "conv3_1_0"
  scale_param {
    bias_term: true
  }
}
layer {
  name: "conv3_1_ReLU0"
  type: "ReLU"
  bottom: "conv3_1_0"
  top: "conv3_1_0"
}
layer {
  name: "conv3_1_1"
  type: "Convolution"
  bottom: "conv3_1_0"
  top: "conv3_1_1"
  param {
    lr_mult: 1
    decay_mult: 1
  }
  param {
    lr_mult: 2
    decay_mult: 0
  }
  convolution_param {
    num_output: 32
    bias_term: true
    pad: 1
    kernel_size: 3
    stride: 1
    weight_filler {
      type: "msra"
    }
    bias_filler {
      type: "constant"
      value: 0
    }
  }
}
layer {
  name: "conv3_1bn1"
  type: "BatchNorm"
  bottom: "conv3_1_1"
  top: "conv3_1_1"
  param {
    lr_mult: 0
    decay_mult: 0
  }
  param {
    lr_mult: 0
    decay_mult: 0
  }
  param {
    lr_mult: 0
    decay_mult: 0
  }
  batch_norm_param {
    use_global_stats: true
  }
}
layer {
  name: "conv3_1_scale1"
  type: "Scale"
  bottom: "conv3_1_1"
  top: "conv3_1_1"
  scale_param {
    bias_term: true
  }
}
layer {
  name: "conv3_1_down"
  type: "Convolution"
  bottom: "conv2_Eltwise_3"
  top: "conv3_1_down"
  param {
    lr_mult: 1
    decay_mult: 1
  }
  param {
    lr_mult: 2
    decay_mult: 0
  }
  convolution_param {
    num_output: 32
    bias_term: true
    pad: 0
    kernel_size: 1
    stride: 2
    weight_filler {
      type: "msra"
    }
    bias_filler {
      type: "constant"
      value: 0
    }
  }
}
layer {
  name: "conv3_1_bn_down"
  type: "BatchNorm"
  bottom: "conv3_1_down"
  top: "conv3_1_down"
  param {
    lr_mult: 0
    decay_mult: 0
  }
  param {
    lr_mult: 0
    decay_mult: 0
  }
  param {
    lr_mult: 0
    decay_mult: 0
  }
  batch_norm_param {
    use_global_stats: true
  }
}
layer {
  name: "conv3_1_scale_down"
  type: "Scale"
  bottom: "conv3_1_down"
  top: "conv3_1_down"
  scale_param {
    bias_term: true
  }
}
layer {
  name: "conv3_Eltwise_1"
  type: "Eltwise"
  bottom: "conv3_1_1"
  bottom: "conv3_1_down"
  top: "conv3_Eltwise_1"
  eltwise_param {
    operation: SUM
  }
}
layer {
  name: "conv3_1ReLU_1"
  type: "ReLU"
  bottom: "conv3_Eltwise_1"
  top: "conv3_Eltwise_1"
}
layer {
  name: "conv3_2_0"
  type: "Convolution"
  bottom: "conv3_Eltwise_1"
  top: "conv3_2_0"
  param {
    lr_mult: 1
    decay_mult: 1
  }
  param {
    lr_mult: 2
    decay_mult: 0
  }
  convolution_param {
    num_output: 32
    bias_term: true
    pad: 1
    kernel_size: 3
    stride: 1
    weight_filler {
      type: "msra"
    }
    bias_filler {
      type: "constant"
      value: 0
    }
  }
}
layer {
  name: "conv3_2_bn0"
  type: "BatchNorm"
  bottom: "conv3_2_0"
  top: "conv3_2_0"
  param {
    lr_mult: 0
    decay_mult: 0
  }
  param {
    lr_mult: 0
    decay_mult: 0
  }
  param {
    lr_mult: 0
    decay_mult: 0
  }
  batch_norm_param {
    use_global_stats: true
  }
}
layer {
  name: "conv3_2_scale0"
  type: "Scale"
  bottom: "conv3_2_0"
  top: "conv3_2_0"
  scale_param {
    bias_term: true
  }
}
layer {
  name: "conv3_2_ReLU0"
  type: "ReLU"
  bottom: "conv3_2_0"
  top: "conv3_2_0"
}
layer {
  name: "conv3_2_1"
  type: "Convolution"
  bottom: "conv3_2_0"
  top: "conv3_2_1"
  param {
    lr_mult: 1
    decay_mult: 1
  }
  param {
    lr_mult: 2
    decay_mult: 0
  }
  convolution_param {
    num_output: 32
    bias_term: true
    pad: 1
    kernel_size: 3
    stride: 1
    weight_filler {
      type: "msra"
    }
    bias_filler {
      type: "constant"
      value: 0
    }
  }
}
layer {
  name: "conv3_2bn1"
  type: "BatchNorm"
  bottom: "conv3_2_1"
  top: "conv3_2_1"
  param {
    lr_mult: 0
    decay_mult: 0
  }
  param {
    lr_mult: 0
    decay_mult: 0
  }
  param {
    lr_mult: 0
    decay_mult: 0
  }
  batch_norm_param {
    use_global_stats: true
  }
}
layer {
  name: "conv3_2_scale1"
  type: "Scale"
  bottom: "conv3_2_1"
  top: "conv3_2_1"
  scale_param {
    bias_term: true
  }
}
layer {
  name: "conv3_Eltwise_2"
  type: "Eltwise"
  bottom: "conv3_Eltwise_1"
  bottom: "conv3_2_1"
  top: "conv3_Eltwise_2"
  eltwise_param {
    operation: SUM
  }
}
layer {
  name: "conv3_2ReLU_1"
  type: "ReLU"
  bottom: "conv3_Eltwise_2"
  top: "conv3_Eltwise_2"
}
layer {
  name: "conv3_3_0"
  type: "Convolution"
  bottom: "conv3_Eltwise_2"
  top: "conv3_3_0"
  param {
    lr_mult: 1
    decay_mult: 1
  }
  param {
    lr_mult: 2
    decay_mult: 0
  }
  convolution_param {
    num_output: 32
    bias_term: true
    pad: 1
    kernel_size: 3
    stride: 1
    weight_filler {
      type: "msra"
    }
    bias_filler {
      type: "constant"
      value: 0
    }
  }
}
layer {
  name: "conv3_3_bn0"
  type: "BatchNorm"
  bottom: "conv3_3_0"
  top: "conv3_3_0"
  param {
    lr_mult: 0
    decay_mult: 0
  }
  param {
    lr_mult: 0
    decay_mult: 0
  }
  param {
    lr_mult: 0
    decay_mult: 0
  }
  batch_norm_param {
    use_global_stats: true
  }
}
layer {
  name: "conv3_3_scale0"
  type: "Scale"
  bottom: "conv3_3_0"
  top: "conv3_3_0"
  scale_param {
    bias_term: true
  }
}
layer {
  name: "conv3_3_ReLU0"
  type: "ReLU"
  bottom: "conv3_3_0"
  top: "conv3_3_0"
}
layer {
  name: "conv3_3_1"
  type: "Convolution"
  bottom: "conv3_3_0"
  top: "conv3_3_1"
  param {
    lr_mult: 1
    decay_mult: 1
  }
  param {
    lr_mult: 2
    decay_mult: 0
  }
  convolution_param {
    num_output: 32
    bias_term: true
    pad: 1
    kernel_size: 3
    stride: 1
    weight_filler {
      type: "msra"
    }
    bias_filler {
      type: "constant"
      value: 0
    }
  }
}
layer {
  name: "conv3_3bn1"
  type: "BatchNorm"
  bottom: "conv3_3_1"
  top: "conv3_3_1"
  param {
    lr_mult: 0
    decay_mult: 0
  }
  param {
    lr_mult: 0
    decay_mult: 0
  }
  param {
    lr_mult: 0
    decay_mult: 0
  }
  batch_norm_param {
    use_global_stats: true
  }
}
layer {
  name: "conv3_3_scale1"
  type: "Scale"
  bottom: "conv3_3_1"
  top: "conv3_3_1"
  scale_param {
    bias_term: true
  }
}
layer {
  name: "conv3_Eltwise_3"
  type: "Eltwise"
  bottom: "conv3_Eltwise_2"
  bottom: "conv3_3_1"
  top: "conv3_Eltwise_3"
  eltwise_param {
    operation: SUM
  }
}
layer {
  name: "conv3_3ReLU_1"
  type: "ReLU"
  bottom: "conv3_Eltwise_3"
  top: "conv3_Eltwise_3"
}
layer {
  name: "conv4_1_0"
  type: "Convolution"
  bottom: "conv3_Eltwise_3"
  top: "conv4_1_0"
  param {
    lr_mult: 1
    decay_mult: 1
  }
  param {
    lr_mult: 2
    decay_mult: 0
  }
  convolution_param {
    num_output: 64
    bias_term: true
    pad: 1
    kernel_size: 3
    stride: 2
    weight_filler {
      type: "msra"
    }
    bias_filler {
      type: "constant"
      value: 0
    }
  }
}
layer {
  name: "conv4_1_bn0"
  type: "BatchNorm"
  bottom: "conv4_1_0"
  top: "conv4_1_0"
  param {
    lr_mult: 0
    decay_mult: 0
  }
  param {
    lr_mult: 0
    decay_mult: 0
  }
  param {
    lr_mult: 0
    decay_mult: 0
  }
  batch_norm_param {
    use_global_stats: true
  }
}
layer {
  name: "conv4_1_scale0"
  type: "Scale"
  bottom: "conv4_1_0"
  top: "conv4_1_0"
  scale_param {
    bias_term: true
  }
}
layer {
  name: "conv4_1_ReLU0"
  type: "ReLU"
  bottom: "conv4_1_0"
  top: "conv4_1_0"
}
layer {
  name: "conv4_1_1"
  type: "Convolution"
  bottom: "conv4_1_0"
  top: "conv4_1_1"
  param {
    lr_mult: 1
    decay_mult: 1
  }
  param {
    lr_mult: 2
    decay_mult: 0
  }
  convolution_param {
    num_output: 64
    bias_term: true
    pad: 1
    kernel_size: 3
    stride: 1
    weight_filler {
      type: "msra"
    }
    bias_filler {
      type: "constant"
      value: 0
    }
  }
}
layer {
  name: "conv4_1bn1"
  type: "BatchNorm"
  bottom: "conv4_1_1"
  top: "conv4_1_1"
  param {
    lr_mult: 0
    decay_mult: 0
  }
  param {
    lr_mult: 0
    decay_mult: 0
  }
  param {
    lr_mult: 0
    decay_mult: 0
  }
  batch_norm_param {
    use_global_stats: true
  }
}
layer {
  name: "conv4_1_scale1"
  type: "Scale"
  bottom: "conv4_1_1"
  top: "conv4_1_1"
  scale_param {
    bias_term: true
  }
}
layer {
  name: "conv4_1_down"
  type: "Convolution"
  bottom: "conv3_Eltwise_3"
  top: "conv4_1_down"
  param {
    lr_mult: 1
    decay_mult: 1
  }
  param {
    lr_mult: 2
    decay_mult: 0
  }
  convolution_param {
    num_output: 64
    bias_term: true
    pad: 0
    kernel_size: 1
    stride: 2
    weight_filler {
      type: "msra"
    }
    bias_filler {
      type: "constant"
      value: 0
    }
  }
}
layer {
  name: "conv4_1_bn_down"
  type: "BatchNorm"
  bottom: "conv4_1_down"
  top: "conv4_1_down"
  param {
    lr_mult: 0
    decay_mult: 0
  }
  param {
    lr_mult: 0
    decay_mult: 0
  }
  param {
    lr_mult: 0
    decay_mult: 0
  }
  batch_norm_param {
    use_global_stats: true
  }
}
layer {
  name: "conv4_1_scale_down"
  type: "Scale"
  bottom: "conv4_1_down"
  top: "conv4_1_down"
  scale_param {
    bias_term: true
  }
}
layer {
  name: "conv4_Eltwise_1"
  type: "Eltwise"
  bottom: "conv4_1_1"
  bottom: "conv4_1_down"
  top: "conv4_Eltwise_1"
  eltwise_param {
    operation: SUM
  }
}
layer {
  name: "conv4_1ReLU_1"
  type: "ReLU"
  bottom: "conv4_Eltwise_1"
  top: "conv4_Eltwise_1"
}
layer {
  name: "conv4_2_0"
  type: "Convolution"
  bottom: "conv4_Eltwise_1"
  top: "conv4_2_0"
  param {
    lr_mult: 1
    decay_mult: 1
  }
  param {
    lr_mult: 2
    decay_mult: 0
  }
  convolution_param {
    num_output: 64
    bias_term: true
    pad: 1
    kernel_size: 3
    stride: 1
    weight_filler {
      type: "msra"
    }
    bias_filler {
      type: "constant"
      value: 0
    }
  }
}
layer {
  name: "conv4_2_bn0"
  type: "BatchNorm"
  bottom: "conv4_2_0"
  top: "conv4_2_0"
  param {
    lr_mult: 0
    decay_mult: 0
  }
  param {
    lr_mult: 0
    decay_mult: 0
  }
  param {
    lr_mult: 0
    decay_mult: 0
  }
  batch_norm_param {
    use_global_stats: true
  }
}
layer {
  name: "conv4_2_scale0"
  type: "Scale"
  bottom: "conv4_2_0"
  top: "conv4_2_0"
  scale_param {
    bias_term: true
  }
}
layer {
  name: "conv4_2_ReLU0"
  type: "ReLU"
  bottom: "conv4_2_0"
  top: "conv4_2_0"
}
layer {
  name: "conv4_2_1"
  type: "Convolution"
  bottom: "conv4_2_0"
  top: "conv4_2_1"
  param {
    lr_mult: 1
    decay_mult: 1
  }
  param {
    lr_mult: 2
    decay_mult: 0
  }
  convolution_param {
    num_output: 64
    bias_term: true
    pad: 1
    kernel_size: 3
    stride: 1
    weight_filler {
      type: "msra"
    }
    bias_filler {
      type: "constant"
      value: 0
    }
  }
}
layer {
  name: "conv4_2bn1"
  type: "BatchNorm"
  bottom: "conv4_2_1"
  top: "conv4_2_1"
  param {
    lr_mult: 0
    decay_mult: 0
  }
  param {
    lr_mult: 0
    decay_mult: 0
  }
  param {
    lr_mult: 0
    decay_mult: 0
  }
  batch_norm_param {
    use_global_stats: true
  }
}
layer {
  name: "conv4_2_scale1"
  type: "Scale"
  bottom: "conv4_2_1"
  top: "conv4_2_1"
  scale_param {
    bias_term: true
  }
}
layer {
  name: "conv4_Eltwise_2"
  type: "Eltwise"
  bottom: "conv4_Eltwise_1"
  bottom: "conv4_2_1"
  top: "conv4_Eltwise_2"
  eltwise_param {
    operation: SUM
  }
}
layer {
  name: "conv4_2ReLU_1"
  type: "ReLU"
  bottom: "conv4_Eltwise_2"
  top: "conv4_Eltwise_2"
}
layer {
  name: "conv4_3_0"
  type: "Convolution"
  bottom: "conv4_Eltwise_2"
  top: "conv4_3_0"
  param {
    lr_mult: 1
    decay_mult: 1
  }
  param {
    lr_mult: 2
    decay_mult: 0
  }
  convolution_param {
    num_output: 64
    bias_term: true
    pad: 1
    kernel_size: 3
    stride: 1
    weight_filler {
      type: "msra"
    }
    bias_filler {
      type: "constant"
      value: 0
    }
  }
}
layer {
  name: "conv4_3_bn0"
  type: "BatchNorm"
  bottom: "conv4_3_0"
  top: "conv4_3_0"
  param {
    lr_mult: 0
    decay_mult: 0
  }
  param {
    lr_mult: 0
    decay_mult: 0
  }
  param {
    lr_mult: 0
    decay_mult: 0
  }
  batch_norm_param {
    use_global_stats: true
  }
}
layer {
  name: "conv4_3_scale0"
  type: "Scale"
  bottom: "conv4_3_0"
  top: "conv4_3_0"
  scale_param {
    bias_term: true
  }
}
layer {
  name: "conv4_3_ReLU0"
  type: "ReLU"
  bottom: "conv4_3_0"
  top: "conv4_3_0"
}
layer {
  name: "conv4_3_1"
  type: "Convolution"
  bottom: "conv4_3_0"
  top: "conv4_3_1"
  param {
    lr_mult: 1
    decay_mult: 1
  }
  param {
    lr_mult: 2
    decay_mult: 0
  }
  convolution_param {
    num_output: 64
    bias_term: true
    pad: 1
    kernel_size: 3
    stride: 1
    weight_filler {
      type: "msra"
    }
    bias_filler {
      type: "constant"
      value: 0
    }
  }
}
layer {
  name: "conv4_3bn1"
  type: "BatchNorm"
  bottom: "conv4_3_1"
  top: "conv4_3_1"
  param {
    lr_mult: 0
    decay_mult: 0
  }
  param {
    lr_mult: 0
    decay_mult: 0
  }
  param {
    lr_mult: 0
    decay_mult: 0
  }
  batch_norm_param {
    use_global_stats: true
  }
}
layer {
  name: "conv4_3_scale1"
  type: "Scale"
  bottom: "conv4_3_1"
  top: "conv4_3_1"
  scale_param {
    bias_term: true
  }
}
layer {
  name: "conv4_Eltwise_3"
  type: "Eltwise"
  bottom: "conv4_Eltwise_2"
  bottom: "conv4_3_1"
  top: "conv4_Eltwise_3"
  eltwise_param {
    operation: SUM
  }
}
layer {
  name: "conv4_3ReLU_1"
  type: "ReLU"
  bottom: "conv4_Eltwise_3"
  top: "conv4_Eltwise_3"
}
layer {
  name: "Pooling1"
  type: "Pooling"
  bottom: "conv4_Eltwise_3"
  top: "Pooling1"
  pooling_param {
    pool: AVE
    global_pooling: true
  }
}
layer {
  name: "fc1"
  type: "Convolution"
  bottom: "Pooling1"
  top: "fc1"
  param {
    lr_mult: 1
    decay_mult: 1
  }
  param {
    lr_mult: 2
    decay_mult: 1
  }
  convolution_param {
    num_output: 10
    bias_term: true
    pad: 0
    kernel_size: 1
    stride: 1
    weight_filler {
      type: "msra"
    }
    bias_filler {
      type: "constant"
      value: 0
    }
  }
}
layer {
  name: "Softmax1"
  type: "SoftmaxWithLoss"
  bottom: "fc1"
  bottom: "label"
  top: "Softmax1"
}
layer {
  name: "prob"
  type: "Accuracy"
  bottom: "fc1"
  bottom: "label"
  top: "prob"
}
I1206 10:32:52.595487  2751 layer_factory.hpp:77] Creating layer Data1
I1206 10:32:52.595566  2751 db_lmdb.cpp:35] Opened lmdb /home/lijianfei/datasets/cifar10_40/test_lmdb
I1206 10:32:52.595584  2751 net.cpp:128] Creating Layer Data1
I1206 10:32:52.595592  2751 net.cpp:522] Data1 -> data
I1206 10:32:52.595602  2751 net.cpp:522] Data1 -> label
I1206 10:32:52.595751  2751 data_layer.cpp:45] output data size: 10,3,32,32
I1206 10:32:52.596698  2751 net.cpp:172] Setting up Data1
I1206 10:32:52.596714  2751 net.cpp:186] Top shape: 10 3 32 32 (30720)
I1206 10:32:52.596721  2751 net.cpp:186] Top shape: 10 (10)
I1206 10:32:52.596724  2751 net.cpp:194] Memory required for data: 122920
I1206 10:32:52.596729  2751 layer_factory.hpp:77] Creating layer label_Data1_1_split
I1206 10:32:52.596738  2751 net.cpp:128] Creating Layer label_Data1_1_split
I1206 10:32:52.596742  2751 net.cpp:558] label_Data1_1_split <- label
I1206 10:32:52.596751  2751 net.cpp:522] label_Data1_1_split -> label_Data1_1_split_0
I1206 10:32:52.596760  2751 net.cpp:522] label_Data1_1_split -> label_Data1_1_split_1
I1206 10:32:52.596818  2751 net.cpp:172] Setting up label_Data1_1_split
I1206 10:32:52.596825  2751 net.cpp:186] Top shape: 10 (10)
I1206 10:32:52.596830  2751 net.cpp:186] Top shape: 10 (10)
I1206 10:32:52.596834  2751 net.cpp:194] Memory required for data: 123000
I1206 10:32:52.596838  2751 layer_factory.hpp:77] Creating layer conv1
I1206 10:32:52.596850  2751 net.cpp:128] Creating Layer conv1
I1206 10:32:52.596855  2751 net.cpp:558] conv1 <- data
I1206 10:32:52.596887  2751 net.cpp:522] conv1 -> conv1
I1206 10:32:52.598683  2751 net.cpp:172] Setting up conv1
I1206 10:32:52.598716  2751 net.cpp:186] Top shape: 10 16 32 32 (163840)
I1206 10:32:52.598721  2751 net.cpp:194] Memory required for data: 778360
I1206 10:32:52.598737  2751 layer_factory.hpp:77] Creating layer conv1/bn
I1206 10:32:52.598745  2751 net.cpp:128] Creating Layer conv1/bn
I1206 10:32:52.598750  2751 net.cpp:558] conv1/bn <- conv1
I1206 10:32:52.598759  2751 net.cpp:509] conv1/bn -> conv1 (in-place)
I1206 10:32:52.599026  2751 net.cpp:172] Setting up conv1/bn
I1206 10:32:52.599035  2751 net.cpp:186] Top shape: 10 16 32 32 (163840)
I1206 10:32:52.599038  2751 net.cpp:194] Memory required for data: 1433720
I1206 10:32:52.599050  2751 layer_factory.hpp:77] Creating layer conv1/scale
I1206 10:32:52.599057  2751 net.cpp:128] Creating Layer conv1/scale
I1206 10:32:52.599061  2751 net.cpp:558] conv1/scale <- conv1
I1206 10:32:52.599069  2751 net.cpp:509] conv1/scale -> conv1 (in-place)
I1206 10:32:52.599115  2751 layer_factory.hpp:77] Creating layer conv1/scale
I1206 10:32:52.599481  2751 net.cpp:172] Setting up conv1/scale
I1206 10:32:52.599495  2751 net.cpp:186] Top shape: 10 16 32 32 (163840)
I1206 10:32:52.599499  2751 net.cpp:194] Memory required for data: 2089080
I1206 10:32:52.599508  2751 layer_factory.hpp:77] Creating layer conv1/ReLU
I1206 10:32:52.599514  2751 net.cpp:128] Creating Layer conv1/ReLU
I1206 10:32:52.599519  2751 net.cpp:558] conv1/ReLU <- conv1
I1206 10:32:52.599525  2751 net.cpp:509] conv1/ReLU -> conv1 (in-place)
I1206 10:32:52.600117  2751 net.cpp:172] Setting up conv1/ReLU
I1206 10:32:52.600129  2751 net.cpp:186] Top shape: 10 16 32 32 (163840)
I1206 10:32:52.600133  2751 net.cpp:194] Memory required for data: 2744440
I1206 10:32:52.600138  2751 layer_factory.hpp:77] Creating layer conv1_conv1/ReLU_0_split
I1206 10:32:52.600145  2751 net.cpp:128] Creating Layer conv1_conv1/ReLU_0_split
I1206 10:32:52.600149  2751 net.cpp:558] conv1_conv1/ReLU_0_split <- conv1
I1206 10:32:52.600158  2751 net.cpp:522] conv1_conv1/ReLU_0_split -> conv1_conv1/ReLU_0_split_0
I1206 10:32:52.600167  2751 net.cpp:522] conv1_conv1/ReLU_0_split -> conv1_conv1/ReLU_0_split_1
I1206 10:32:52.600219  2751 net.cpp:172] Setting up conv1_conv1/ReLU_0_split
I1206 10:32:52.600240  2751 net.cpp:186] Top shape: 10 16 32 32 (163840)
I1206 10:32:52.600247  2751 net.cpp:186] Top shape: 10 16 32 32 (163840)
I1206 10:32:52.600251  2751 net.cpp:194] Memory required for data: 4055160
I1206 10:32:52.600255  2751 layer_factory.hpp:77] Creating layer conv2_1_0
I1206 10:32:52.600270  2751 net.cpp:128] Creating Layer conv2_1_0
I1206 10:32:52.600275  2751 net.cpp:558] conv2_1_0 <- conv1_conv1/ReLU_0_split_0
I1206 10:32:52.600281  2751 net.cpp:522] conv2_1_0 -> conv2_1_0
I1206 10:32:52.602218  2751 net.cpp:172] Setting up conv2_1_0
I1206 10:32:52.602241  2751 net.cpp:186] Top shape: 10 16 32 32 (163840)
I1206 10:32:52.602247  2751 net.cpp:194] Memory required for data: 4710520
I1206 10:32:52.602262  2751 layer_factory.hpp:77] Creating layer conv2_1_bn0
I1206 10:32:52.602277  2751 net.cpp:128] Creating Layer conv2_1_bn0
I1206 10:32:52.602283  2751 net.cpp:558] conv2_1_bn0 <- conv2_1_0
I1206 10:32:52.602290  2751 net.cpp:509] conv2_1_bn0 -> conv2_1_0 (in-place)
I1206 10:32:52.602573  2751 net.cpp:172] Setting up conv2_1_bn0
I1206 10:32:52.602583  2751 net.cpp:186] Top shape: 10 16 32 32 (163840)
I1206 10:32:52.602587  2751 net.cpp:194] Memory required for data: 5365880
I1206 10:32:52.602598  2751 layer_factory.hpp:77] Creating layer conv2_1_scale0
I1206 10:32:52.602605  2751 net.cpp:128] Creating Layer conv2_1_scale0
I1206 10:32:52.602609  2751 net.cpp:558] conv2_1_scale0 <- conv2_1_0
I1206 10:32:52.602614  2751 net.cpp:509] conv2_1_scale0 -> conv2_1_0 (in-place)
I1206 10:32:52.602705  2751 layer_factory.hpp:77] Creating layer conv2_1_scale0
I1206 10:32:52.602905  2751 net.cpp:172] Setting up conv2_1_scale0
I1206 10:32:52.602916  2751 net.cpp:186] Top shape: 10 16 32 32 (163840)
I1206 10:32:52.602927  2751 net.cpp:194] Memory required for data: 6021240
I1206 10:32:52.602944  2751 layer_factory.hpp:77] Creating layer conv2_1_ReLU0
I1206 10:32:52.602967  2751 net.cpp:128] Creating Layer conv2_1_ReLU0
I1206 10:32:52.602977  2751 net.cpp:558] conv2_1_ReLU0 <- conv2_1_0
I1206 10:32:52.603005  2751 net.cpp:509] conv2_1_ReLU0 -> conv2_1_0 (in-place)
I1206 10:32:52.603559  2751 net.cpp:172] Setting up conv2_1_ReLU0
I1206 10:32:52.603581  2751 net.cpp:186] Top shape: 10 16 32 32 (163840)
I1206 10:32:52.603586  2751 net.cpp:194] Memory required for data: 6676600
I1206 10:32:52.603591  2751 layer_factory.hpp:77] Creating layer conv2_1_1
I1206 10:32:52.603606  2751 net.cpp:128] Creating Layer conv2_1_1
I1206 10:32:52.603615  2751 net.cpp:558] conv2_1_1 <- conv2_1_0
I1206 10:32:52.603624  2751 net.cpp:522] conv2_1_1 -> conv2_1_1
I1206 10:32:52.605003  2751 net.cpp:172] Setting up conv2_1_1
I1206 10:32:52.605032  2751 net.cpp:186] Top shape: 10 16 32 32 (163840)
I1206 10:32:52.605036  2751 net.cpp:194] Memory required for data: 7331960
I1206 10:32:52.605046  2751 layer_factory.hpp:77] Creating layer conv2_1bn1
I1206 10:32:52.605060  2751 net.cpp:128] Creating Layer conv2_1bn1
I1206 10:32:52.605065  2751 net.cpp:558] conv2_1bn1 <- conv2_1_1
I1206 10:32:52.605074  2751 net.cpp:509] conv2_1bn1 -> conv2_1_1 (in-place)
I1206 10:32:52.605346  2751 net.cpp:172] Setting up conv2_1bn1
I1206 10:32:52.605356  2751 net.cpp:186] Top shape: 10 16 32 32 (163840)
I1206 10:32:52.605360  2751 net.cpp:194] Memory required for data: 7987320
I1206 10:32:52.605373  2751 layer_factory.hpp:77] Creating layer conv2_1_scale1
I1206 10:32:52.605384  2751 net.cpp:128] Creating Layer conv2_1_scale1
I1206 10:32:52.605391  2751 net.cpp:558] conv2_1_scale1 <- conv2_1_1
I1206 10:32:52.605396  2751 net.cpp:509] conv2_1_scale1 -> conv2_1_1 (in-place)
I1206 10:32:52.605446  2751 layer_factory.hpp:77] Creating layer conv2_1_scale1
I1206 10:32:52.605624  2751 net.cpp:172] Setting up conv2_1_scale1
I1206 10:32:52.605635  2751 net.cpp:186] Top shape: 10 16 32 32 (163840)
I1206 10:32:52.605639  2751 net.cpp:194] Memory required for data: 8642680
I1206 10:32:52.605648  2751 layer_factory.hpp:77] Creating layer conv2_Eltwise_1
I1206 10:32:52.605656  2751 net.cpp:128] Creating Layer conv2_Eltwise_1
I1206 10:32:52.605665  2751 net.cpp:558] conv2_Eltwise_1 <- conv1_conv1/ReLU_0_split_1
I1206 10:32:52.605670  2751 net.cpp:558] conv2_Eltwise_1 <- conv2_1_1
I1206 10:32:52.605676  2751 net.cpp:522] conv2_Eltwise_1 -> conv2_Eltwise_1
I1206 10:32:52.605707  2751 net.cpp:172] Setting up conv2_Eltwise_1
I1206 10:32:52.605716  2751 net.cpp:186] Top shape: 10 16 32 32 (163840)
I1206 10:32:52.605720  2751 net.cpp:194] Memory required for data: 9298040
I1206 10:32:52.605724  2751 layer_factory.hpp:77] Creating layer conv2_1ReLU_1
I1206 10:32:52.605731  2751 net.cpp:128] Creating Layer conv2_1ReLU_1
I1206 10:32:52.605736  2751 net.cpp:558] conv2_1ReLU_1 <- conv2_Eltwise_1
I1206 10:32:52.605742  2751 net.cpp:509] conv2_1ReLU_1 -> conv2_Eltwise_1 (in-place)
I1206 10:32:52.605981  2751 net.cpp:172] Setting up conv2_1ReLU_1
I1206 10:32:52.605994  2751 net.cpp:186] Top shape: 10 16 32 32 (163840)
I1206 10:32:52.606001  2751 net.cpp:194] Memory required for data: 9953400
I1206 10:32:52.606005  2751 layer_factory.hpp:77] Creating layer conv2_Eltwise_1_conv2_1ReLU_1_0_split
I1206 10:32:52.606015  2751 net.cpp:128] Creating Layer conv2_Eltwise_1_conv2_1ReLU_1_0_split
I1206 10:32:52.606022  2751 net.cpp:558] conv2_Eltwise_1_conv2_1ReLU_1_0_split <- conv2_Eltwise_1
I1206 10:32:52.606029  2751 net.cpp:522] conv2_Eltwise_1_conv2_1ReLU_1_0_split -> conv2_Eltwise_1_conv2_1ReLU_1_0_split_0
I1206 10:32:52.606040  2751 net.cpp:522] conv2_Eltwise_1_conv2_1ReLU_1_0_split -> conv2_Eltwise_1_conv2_1ReLU_1_0_split_1
I1206 10:32:52.606092  2751 net.cpp:172] Setting up conv2_Eltwise_1_conv2_1ReLU_1_0_split
I1206 10:32:52.606102  2751 net.cpp:186] Top shape: 10 16 32 32 (163840)
I1206 10:32:52.606108  2751 net.cpp:186] Top shape: 10 16 32 32 (163840)
I1206 10:32:52.606112  2751 net.cpp:194] Memory required for data: 11264120
I1206 10:32:52.606117  2751 layer_factory.hpp:77] Creating layer conv2_2_0
I1206 10:32:52.606128  2751 net.cpp:128] Creating Layer conv2_2_0
I1206 10:32:52.606148  2751 net.cpp:558] conv2_2_0 <- conv2_Eltwise_1_conv2_1ReLU_1_0_split_0
I1206 10:32:52.606158  2751 net.cpp:522] conv2_2_0 -> conv2_2_0
I1206 10:32:52.607455  2751 net.cpp:172] Setting up conv2_2_0
I1206 10:32:52.607481  2751 net.cpp:186] Top shape: 10 16 32 32 (163840)
I1206 10:32:52.607486  2751 net.cpp:194] Memory required for data: 11919480
I1206 10:32:52.607496  2751 layer_factory.hpp:77] Creating layer conv2_2_bn0
I1206 10:32:52.607507  2751 net.cpp:128] Creating Layer conv2_2_bn0
I1206 10:32:52.607514  2751 net.cpp:558] conv2_2_bn0 <- conv2_2_0
I1206 10:32:52.607522  2751 net.cpp:509] conv2_2_bn0 -> conv2_2_0 (in-place)
I1206 10:32:52.607789  2751 net.cpp:172] Setting up conv2_2_bn0
I1206 10:32:52.607800  2751 net.cpp:186] Top shape: 10 16 32 32 (163840)
I1206 10:32:52.607803  2751 net.cpp:194] Memory required for data: 12574840
I1206 10:32:52.607812  2751 layer_factory.hpp:77] Creating layer conv2_2_scale0
I1206 10:32:52.607821  2751 net.cpp:128] Creating Layer conv2_2_scale0
I1206 10:32:52.607825  2751 net.cpp:558] conv2_2_scale0 <- conv2_2_0
I1206 10:32:52.607831  2751 net.cpp:509] conv2_2_scale0 -> conv2_2_0 (in-place)
I1206 10:32:52.607880  2751 layer_factory.hpp:77] Creating layer conv2_2_scale0
I1206 10:32:52.608027  2751 net.cpp:172] Setting up conv2_2_scale0
I1206 10:32:52.608037  2751 net.cpp:186] Top shape: 10 16 32 32 (163840)
I1206 10:32:52.608042  2751 net.cpp:194] Memory required for data: 13230200
I1206 10:32:52.608048  2751 layer_factory.hpp:77] Creating layer conv2_2_ReLU0
I1206 10:32:52.608057  2751 net.cpp:128] Creating Layer conv2_2_ReLU0
I1206 10:32:52.608064  2751 net.cpp:558] conv2_2_ReLU0 <- conv2_2_0
I1206 10:32:52.608072  2751 net.cpp:509] conv2_2_ReLU0 -> conv2_2_0 (in-place)
I1206 10:32:52.608332  2751 net.cpp:172] Setting up conv2_2_ReLU0
I1206 10:32:52.608348  2751 net.cpp:186] Top shape: 10 16 32 32 (163840)
I1206 10:32:52.608352  2751 net.cpp:194] Memory required for data: 13885560
I1206 10:32:52.608359  2751 layer_factory.hpp:77] Creating layer conv2_2_1
I1206 10:32:52.608372  2751 net.cpp:128] Creating Layer conv2_2_1
I1206 10:32:52.608379  2751 net.cpp:558] conv2_2_1 <- conv2_2_0
I1206 10:32:52.608389  2751 net.cpp:522] conv2_2_1 -> conv2_2_1
I1206 10:32:52.609747  2751 net.cpp:172] Setting up conv2_2_1
I1206 10:32:52.609773  2751 net.cpp:186] Top shape: 10 16 32 32 (163840)
I1206 10:32:52.609777  2751 net.cpp:194] Memory required for data: 14540920
I1206 10:32:52.609787  2751 layer_factory.hpp:77] Creating layer conv2_2bn1
I1206 10:32:52.609803  2751 net.cpp:128] Creating Layer conv2_2bn1
I1206 10:32:52.609812  2751 net.cpp:558] conv2_2bn1 <- conv2_2_1
I1206 10:32:52.609820  2751 net.cpp:509] conv2_2bn1 -> conv2_2_1 (in-place)
I1206 10:32:52.610090  2751 net.cpp:172] Setting up conv2_2bn1
I1206 10:32:52.610100  2751 net.cpp:186] Top shape: 10 16 32 32 (163840)
I1206 10:32:52.610103  2751 net.cpp:194] Memory required for data: 15196280
I1206 10:32:52.610117  2751 layer_factory.hpp:77] Creating layer conv2_2_scale1
I1206 10:32:52.610126  2751 net.cpp:128] Creating Layer conv2_2_scale1
I1206 10:32:52.610131  2751 net.cpp:558] conv2_2_scale1 <- conv2_2_1
I1206 10:32:52.610137  2751 net.cpp:509] conv2_2_scale1 -> conv2_2_1 (in-place)
I1206 10:32:52.610188  2751 layer_factory.hpp:77] Creating layer conv2_2_scale1
I1206 10:32:52.610342  2751 net.cpp:172] Setting up conv2_2_scale1
I1206 10:32:52.610352  2751 net.cpp:186] Top shape: 10 16 32 32 (163840)
I1206 10:32:52.610357  2751 net.cpp:194] Memory required for data: 15851640
I1206 10:32:52.610363  2751 layer_factory.hpp:77] Creating layer conv2_Eltwise_2
I1206 10:32:52.610370  2751 net.cpp:128] Creating Layer conv2_Eltwise_2
I1206 10:32:52.610375  2751 net.cpp:558] conv2_Eltwise_2 <- conv2_Eltwise_1_conv2_1ReLU_1_0_split_1
I1206 10:32:52.610380  2751 net.cpp:558] conv2_Eltwise_2 <- conv2_2_1
I1206 10:32:52.610391  2751 net.cpp:522] conv2_Eltwise_2 -> conv2_Eltwise_2
I1206 10:32:52.610421  2751 net.cpp:172] Setting up conv2_Eltwise_2
I1206 10:32:52.610430  2751 net.cpp:186] Top shape: 10 16 32 32 (163840)
I1206 10:32:52.610450  2751 net.cpp:194] Memory required for data: 16507000
I1206 10:32:52.610455  2751 layer_factory.hpp:77] Creating layer conv2_2ReLU_1
I1206 10:32:52.610461  2751 net.cpp:128] Creating Layer conv2_2ReLU_1
I1206 10:32:52.610466  2751 net.cpp:558] conv2_2ReLU_1 <- conv2_Eltwise_2
I1206 10:32:52.610471  2751 net.cpp:509] conv2_2ReLU_1 -> conv2_Eltwise_2 (in-place)
I1206 10:32:52.610911  2751 net.cpp:172] Setting up conv2_2ReLU_1
I1206 10:32:52.610931  2751 net.cpp:186] Top shape: 10 16 32 32 (163840)
I1206 10:32:52.610936  2751 net.cpp:194] Memory required for data: 17162360
I1206 10:32:52.610941  2751 layer_factory.hpp:77] Creating layer conv2_Eltwise_2_conv2_2ReLU_1_0_split
I1206 10:32:52.610950  2751 net.cpp:128] Creating Layer conv2_Eltwise_2_conv2_2ReLU_1_0_split
I1206 10:32:52.610958  2751 net.cpp:558] conv2_Eltwise_2_conv2_2ReLU_1_0_split <- conv2_Eltwise_2
I1206 10:32:52.610968  2751 net.cpp:522] conv2_Eltwise_2_conv2_2ReLU_1_0_split -> conv2_Eltwise_2_conv2_2ReLU_1_0_split_0
I1206 10:32:52.610977  2751 net.cpp:522] conv2_Eltwise_2_conv2_2ReLU_1_0_split -> conv2_Eltwise_2_conv2_2ReLU_1_0_split_1
I1206 10:32:52.611034  2751 net.cpp:172] Setting up conv2_Eltwise_2_conv2_2ReLU_1_0_split
I1206 10:32:52.611044  2751 net.cpp:186] Top shape: 10 16 32 32 (163840)
I1206 10:32:52.611050  2751 net.cpp:186] Top shape: 10 16 32 32 (163840)
I1206 10:32:52.611057  2751 net.cpp:194] Memory required for data: 18473080
I1206 10:32:52.611063  2751 layer_factory.hpp:77] Creating layer conv2_3_0
I1206 10:32:52.611074  2751 net.cpp:128] Creating Layer conv2_3_0
I1206 10:32:52.611081  2751 net.cpp:558] conv2_3_0 <- conv2_Eltwise_2_conv2_2ReLU_1_0_split_0
I1206 10:32:52.611090  2751 net.cpp:522] conv2_3_0 -> conv2_3_0
I1206 10:32:52.612413  2751 net.cpp:172] Setting up conv2_3_0
I1206 10:32:52.612437  2751 net.cpp:186] Top shape: 10 16 32 32 (163840)
I1206 10:32:52.612442  2751 net.cpp:194] Memory required for data: 19128440
I1206 10:32:52.612453  2751 layer_factory.hpp:77] Creating layer conv2_3_bn0
I1206 10:32:52.612462  2751 net.cpp:128] Creating Layer conv2_3_bn0
I1206 10:32:52.612469  2751 net.cpp:558] conv2_3_bn0 <- conv2_3_0
I1206 10:32:52.612479  2751 net.cpp:509] conv2_3_bn0 -> conv2_3_0 (in-place)
I1206 10:32:52.612751  2751 net.cpp:172] Setting up conv2_3_bn0
I1206 10:32:52.612761  2751 net.cpp:186] Top shape: 10 16 32 32 (163840)
I1206 10:32:52.612766  2751 net.cpp:194] Memory required for data: 19783800
I1206 10:32:52.612776  2751 layer_factory.hpp:77] Creating layer conv2_3_scale0
I1206 10:32:52.612783  2751 net.cpp:128] Creating Layer conv2_3_scale0
I1206 10:32:52.612790  2751 net.cpp:558] conv2_3_scale0 <- conv2_3_0
I1206 10:32:52.612798  2751 net.cpp:509] conv2_3_scale0 -> conv2_3_0 (in-place)
I1206 10:32:52.612848  2751 layer_factory.hpp:77] Creating layer conv2_3_scale0
I1206 10:32:52.613001  2751 net.cpp:172] Setting up conv2_3_scale0
I1206 10:32:52.613013  2751 net.cpp:186] Top shape: 10 16 32 32 (163840)
I1206 10:32:52.613019  2751 net.cpp:194] Memory required for data: 20439160
I1206 10:32:52.613027  2751 layer_factory.hpp:77] Creating layer conv2_3_ReLU0
I1206 10:32:52.613036  2751 net.cpp:128] Creating Layer conv2_3_ReLU0
I1206 10:32:52.613040  2751 net.cpp:558] conv2_3_ReLU0 <- conv2_3_0
I1206 10:32:52.613045  2751 net.cpp:509] conv2_3_ReLU0 -> conv2_3_0 (in-place)
I1206 10:32:52.613291  2751 net.cpp:172] Setting up conv2_3_ReLU0
I1206 10:32:52.613303  2751 net.cpp:186] Top shape: 10 16 32 32 (163840)
I1206 10:32:52.613307  2751 net.cpp:194] Memory required for data: 21094520
I1206 10:32:52.613312  2751 layer_factory.hpp:77] Creating layer conv2_3_1
I1206 10:32:52.613325  2751 net.cpp:128] Creating Layer conv2_3_1
I1206 10:32:52.613333  2751 net.cpp:558] conv2_3_1 <- conv2_3_0
I1206 10:32:52.613342  2751 net.cpp:522] conv2_3_1 -> conv2_3_1
I1206 10:32:52.614667  2751 net.cpp:172] Setting up conv2_3_1
I1206 10:32:52.614693  2751 net.cpp:186] Top shape: 10 16 32 32 (163840)
I1206 10:32:52.614698  2751 net.cpp:194] Memory required for data: 21749880
I1206 10:32:52.614707  2751 layer_factory.hpp:77] Creating layer conv2_3bn1
I1206 10:32:52.614742  2751 net.cpp:128] Creating Layer conv2_3bn1
I1206 10:32:52.614750  2751 net.cpp:558] conv2_3bn1 <- conv2_3_1
I1206 10:32:52.614758  2751 net.cpp:509] conv2_3bn1 -> conv2_3_1 (in-place)
I1206 10:32:52.615036  2751 net.cpp:172] Setting up conv2_3bn1
I1206 10:32:52.615046  2751 net.cpp:186] Top shape: 10 16 32 32 (163840)
I1206 10:32:52.615051  2751 net.cpp:194] Memory required for data: 22405240
I1206 10:32:52.615061  2751 layer_factory.hpp:77] Creating layer conv2_3_scale1
I1206 10:32:52.615069  2751 net.cpp:128] Creating Layer conv2_3_scale1
I1206 10:32:52.615074  2751 net.cpp:558] conv2_3_scale1 <- conv2_3_1
I1206 10:32:52.615083  2751 net.cpp:509] conv2_3_scale1 -> conv2_3_1 (in-place)
I1206 10:32:52.615133  2751 layer_factory.hpp:77] Creating layer conv2_3_scale1
I1206 10:32:52.615283  2751 net.cpp:172] Setting up conv2_3_scale1
I1206 10:32:52.615291  2751 net.cpp:186] Top shape: 10 16 32 32 (163840)
I1206 10:32:52.615296  2751 net.cpp:194] Memory required for data: 23060600
I1206 10:32:52.615303  2751 layer_factory.hpp:77] Creating layer conv2_Eltwise_3
I1206 10:32:52.615310  2751 net.cpp:128] Creating Layer conv2_Eltwise_3
I1206 10:32:52.615317  2751 net.cpp:558] conv2_Eltwise_3 <- conv2_Eltwise_2_conv2_2ReLU_1_0_split_1
I1206 10:32:52.615324  2751 net.cpp:558] conv2_Eltwise_3 <- conv2_3_1
I1206 10:32:52.615332  2751 net.cpp:522] conv2_Eltwise_3 -> conv2_Eltwise_3
I1206 10:32:52.615361  2751 net.cpp:172] Setting up conv2_Eltwise_3
I1206 10:32:52.615372  2751 net.cpp:186] Top shape: 10 16 32 32 (163840)
I1206 10:32:52.615380  2751 net.cpp:194] Memory required for data: 23715960
I1206 10:32:52.615384  2751 layer_factory.hpp:77] Creating layer conv2_3ReLU_1
I1206 10:32:52.615391  2751 net.cpp:128] Creating Layer conv2_3ReLU_1
I1206 10:32:52.615396  2751 net.cpp:558] conv2_3ReLU_1 <- conv2_Eltwise_3
I1206 10:32:52.615401  2751 net.cpp:509] conv2_3ReLU_1 -> conv2_Eltwise_3 (in-place)
I1206 10:32:52.615648  2751 net.cpp:172] Setting up conv2_3ReLU_1
I1206 10:32:52.615662  2751 net.cpp:186] Top shape: 10 16 32 32 (163840)
I1206 10:32:52.615671  2751 net.cpp:194] Memory required for data: 24371320
I1206 10:32:52.615675  2751 layer_factory.hpp:77] Creating layer conv2_Eltwise_3_conv2_3ReLU_1_0_split
I1206 10:32:52.615682  2751 net.cpp:128] Creating Layer conv2_Eltwise_3_conv2_3ReLU_1_0_split
I1206 10:32:52.615687  2751 net.cpp:558] conv2_Eltwise_3_conv2_3ReLU_1_0_split <- conv2_Eltwise_3
I1206 10:32:52.615694  2751 net.cpp:522] conv2_Eltwise_3_conv2_3ReLU_1_0_split -> conv2_Eltwise_3_conv2_3ReLU_1_0_split_0
I1206 10:32:52.615707  2751 net.cpp:522] conv2_Eltwise_3_conv2_3ReLU_1_0_split -> conv2_Eltwise_3_conv2_3ReLU_1_0_split_1
I1206 10:32:52.615762  2751 net.cpp:172] Setting up conv2_Eltwise_3_conv2_3ReLU_1_0_split
I1206 10:32:52.615772  2751 net.cpp:186] Top shape: 10 16 32 32 (163840)
I1206 10:32:52.615777  2751 net.cpp:186] Top shape: 10 16 32 32 (163840)
I1206 10:32:52.615782  2751 net.cpp:194] Memory required for data: 25682040
I1206 10:32:52.615785  2751 layer_factory.hpp:77] Creating layer conv3_1_0
I1206 10:32:52.615800  2751 net.cpp:128] Creating Layer conv3_1_0
I1206 10:32:52.615805  2751 net.cpp:558] conv3_1_0 <- conv2_Eltwise_3_conv2_3ReLU_1_0_split_0
I1206 10:32:52.615813  2751 net.cpp:522] conv3_1_0 -> conv3_1_0
I1206 10:32:52.617211  2751 net.cpp:172] Setting up conv3_1_0
I1206 10:32:52.617238  2751 net.cpp:186] Top shape: 10 32 16 16 (81920)
I1206 10:32:52.617244  2751 net.cpp:194] Memory required for data: 26009720
I1206 10:32:52.617252  2751 layer_factory.hpp:77] Creating layer conv3_1_bn0
I1206 10:32:52.617264  2751 net.cpp:128] Creating Layer conv3_1_bn0
I1206 10:32:52.617269  2751 net.cpp:558] conv3_1_bn0 <- conv3_1_0
I1206 10:32:52.617278  2751 net.cpp:509] conv3_1_bn0 -> conv3_1_0 (in-place)
I1206 10:32:52.617538  2751 net.cpp:172] Setting up conv3_1_bn0
I1206 10:32:52.617549  2751 net.cpp:186] Top shape: 10 32 16 16 (81920)
I1206 10:32:52.617554  2751 net.cpp:194] Memory required for data: 26337400
I1206 10:32:52.617563  2751 layer_factory.hpp:77] Creating layer conv3_1_scale0
I1206 10:32:52.617588  2751 net.cpp:128] Creating Layer conv3_1_scale0
I1206 10:32:52.617592  2751 net.cpp:558] conv3_1_scale0 <- conv3_1_0
I1206 10:32:52.617599  2751 net.cpp:509] conv3_1_scale0 -> conv3_1_0 (in-place)
I1206 10:32:52.617684  2751 layer_factory.hpp:77] Creating layer conv3_1_scale0
I1206 10:32:52.617843  2751 net.cpp:172] Setting up conv3_1_scale0
I1206 10:32:52.617854  2751 net.cpp:186] Top shape: 10 32 16 16 (81920)
I1206 10:32:52.617859  2751 net.cpp:194] Memory required for data: 26665080
I1206 10:32:52.617867  2751 layer_factory.hpp:77] Creating layer conv3_1_ReLU0
I1206 10:32:52.617877  2751 net.cpp:128] Creating Layer conv3_1_ReLU0
I1206 10:32:52.617882  2751 net.cpp:558] conv3_1_ReLU0 <- conv3_1_0
I1206 10:32:52.617887  2751 net.cpp:509] conv3_1_ReLU0 -> conv3_1_0 (in-place)
I1206 10:32:52.618165  2751 net.cpp:172] Setting up conv3_1_ReLU0
I1206 10:32:52.618180  2751 net.cpp:186] Top shape: 10 32 16 16 (81920)
I1206 10:32:52.618185  2751 net.cpp:194] Memory required for data: 26992760
I1206 10:32:52.618189  2751 layer_factory.hpp:77] Creating layer conv3_1_1
I1206 10:32:52.618203  2751 net.cpp:128] Creating Layer conv3_1_1
I1206 10:32:52.618208  2751 net.cpp:558] conv3_1_1 <- conv3_1_0
I1206 10:32:52.618216  2751 net.cpp:522] conv3_1_1 -> conv3_1_1
I1206 10:32:52.619765  2751 net.cpp:172] Setting up conv3_1_1
I1206 10:32:52.619808  2751 net.cpp:186] Top shape: 10 32 16 16 (81920)
I1206 10:32:52.619813  2751 net.cpp:194] Memory required for data: 27320440
I1206 10:32:52.619827  2751 layer_factory.hpp:77] Creating layer conv3_1bn1
I1206 10:32:52.619837  2751 net.cpp:128] Creating Layer conv3_1bn1
I1206 10:32:52.619843  2751 net.cpp:558] conv3_1bn1 <- conv3_1_1
I1206 10:32:52.619855  2751 net.cpp:509] conv3_1bn1 -> conv3_1_1 (in-place)
I1206 10:32:52.620121  2751 net.cpp:172] Setting up conv3_1bn1
I1206 10:32:52.620132  2751 net.cpp:186] Top shape: 10 32 16 16 (81920)
I1206 10:32:52.620137  2751 net.cpp:194] Memory required for data: 27648120
I1206 10:32:52.620146  2751 layer_factory.hpp:77] Creating layer conv3_1_scale1
I1206 10:32:52.620153  2751 net.cpp:128] Creating Layer conv3_1_scale1
I1206 10:32:52.620157  2751 net.cpp:558] conv3_1_scale1 <- conv3_1_1
I1206 10:32:52.620167  2751 net.cpp:509] conv3_1_scale1 -> conv3_1_1 (in-place)
I1206 10:32:52.620218  2751 layer_factory.hpp:77] Creating layer conv3_1_scale1
I1206 10:32:52.620378  2751 net.cpp:172] Setting up conv3_1_scale1
I1206 10:32:52.620388  2751 net.cpp:186] Top shape: 10 32 16 16 (81920)
I1206 10:32:52.620393  2751 net.cpp:194] Memory required for data: 27975800
I1206 10:32:52.620400  2751 layer_factory.hpp:77] Creating layer conv3_1_down
I1206 10:32:52.620412  2751 net.cpp:128] Creating Layer conv3_1_down
I1206 10:32:52.620417  2751 net.cpp:558] conv3_1_down <- conv2_Eltwise_3_conv2_3ReLU_1_0_split_1
I1206 10:32:52.620427  2751 net.cpp:522] conv3_1_down -> conv3_1_down
I1206 10:32:52.621731  2751 net.cpp:172] Setting up conv3_1_down
I1206 10:32:52.621757  2751 net.cpp:186] Top shape: 10 32 16 16 (81920)
I1206 10:32:52.621762  2751 net.cpp:194] Memory required for data: 28303480
I1206 10:32:52.621781  2751 layer_factory.hpp:77] Creating layer conv3_1_bn_down
I1206 10:32:52.621794  2751 net.cpp:128] Creating Layer conv3_1_bn_down
I1206 10:32:52.621803  2751 net.cpp:558] conv3_1_bn_down <- conv3_1_down
I1206 10:32:52.621812  2751 net.cpp:509] conv3_1_bn_down -> conv3_1_down (in-place)
I1206 10:32:52.622076  2751 net.cpp:172] Setting up conv3_1_bn_down
I1206 10:32:52.622086  2751 net.cpp:186] Top shape: 10 32 16 16 (81920)
I1206 10:32:52.622089  2751 net.cpp:194] Memory required for data: 28631160
I1206 10:32:52.622099  2751 layer_factory.hpp:77] Creating layer conv3_1_scale_down
I1206 10:32:52.622108  2751 net.cpp:128] Creating Layer conv3_1_scale_down
I1206 10:32:52.622112  2751 net.cpp:558] conv3_1_scale_down <- conv3_1_down
I1206 10:32:52.622122  2751 net.cpp:509] conv3_1_scale_down -> conv3_1_down (in-place)
I1206 10:32:52.622171  2751 layer_factory.hpp:77] Creating layer conv3_1_scale_down
I1206 10:32:52.622339  2751 net.cpp:172] Setting up conv3_1_scale_down
I1206 10:32:52.622350  2751 net.cpp:186] Top shape: 10 32 16 16 (81920)
I1206 10:32:52.622354  2751 net.cpp:194] Memory required for data: 28958840
I1206 10:32:52.622362  2751 layer_factory.hpp:77] Creating layer conv3_Eltwise_1
I1206 10:32:52.622371  2751 net.cpp:128] Creating Layer conv3_Eltwise_1
I1206 10:32:52.622380  2751 net.cpp:558] conv3_Eltwise_1 <- conv3_1_1
I1206 10:32:52.622385  2751 net.cpp:558] conv3_Eltwise_1 <- conv3_1_down
I1206 10:32:52.622390  2751 net.cpp:522] conv3_Eltwise_1 -> conv3_Eltwise_1
I1206 10:32:52.622416  2751 net.cpp:172] Setting up conv3_Eltwise_1
I1206 10:32:52.622424  2751 net.cpp:186] Top shape: 10 32 16 16 (81920)
I1206 10:32:52.622428  2751 net.cpp:194] Memory required for data: 29286520
I1206 10:32:52.622432  2751 layer_factory.hpp:77] Creating layer conv3_1ReLU_1
I1206 10:32:52.622438  2751 net.cpp:128] Creating Layer conv3_1ReLU_1
I1206 10:32:52.622442  2751 net.cpp:558] conv3_1ReLU_1 <- conv3_Eltwise_1
I1206 10:32:52.622448  2751 net.cpp:509] conv3_1ReLU_1 -> conv3_Eltwise_1 (in-place)
I1206 10:32:52.623045  2751 net.cpp:172] Setting up conv3_1ReLU_1
I1206 10:32:52.623066  2751 net.cpp:186] Top shape: 10 32 16 16 (81920)
I1206 10:32:52.623072  2751 net.cpp:194] Memory required for data: 29614200
I1206 10:32:52.623077  2751 layer_factory.hpp:77] Creating layer conv3_Eltwise_1_conv3_1ReLU_1_0_split
I1206 10:32:52.623085  2751 net.cpp:128] Creating Layer conv3_Eltwise_1_conv3_1ReLU_1_0_split
I1206 10:32:52.623092  2751 net.cpp:558] conv3_Eltwise_1_conv3_1ReLU_1_0_split <- conv3_Eltwise_1
I1206 10:32:52.623101  2751 net.cpp:522] conv3_Eltwise_1_conv3_1ReLU_1_0_split -> conv3_Eltwise_1_conv3_1ReLU_1_0_split_0
I1206 10:32:52.623113  2751 net.cpp:522] conv3_Eltwise_1_conv3_1ReLU_1_0_split -> conv3_Eltwise_1_conv3_1ReLU_1_0_split_1
I1206 10:32:52.623173  2751 net.cpp:172] Setting up conv3_Eltwise_1_conv3_1ReLU_1_0_split
I1206 10:32:52.623183  2751 net.cpp:186] Top shape: 10 32 16 16 (81920)
I1206 10:32:52.623189  2751 net.cpp:186] Top shape: 10 32 16 16 (81920)
I1206 10:32:52.623193  2751 net.cpp:194] Memory required for data: 30269560
I1206 10:32:52.623198  2751 layer_factory.hpp:77] Creating layer conv3_2_0
I1206 10:32:52.623209  2751 net.cpp:128] Creating Layer conv3_2_0
I1206 10:32:52.623216  2751 net.cpp:558] conv3_2_0 <- conv3_Eltwise_1_conv3_1ReLU_1_0_split_0
I1206 10:32:52.623255  2751 net.cpp:522] conv3_2_0 -> conv3_2_0
I1206 10:32:52.624760  2751 net.cpp:172] Setting up conv3_2_0
I1206 10:32:52.624786  2751 net.cpp:186] Top shape: 10 32 16 16 (81920)
I1206 10:32:52.624791  2751 net.cpp:194] Memory required for data: 30597240
I1206 10:32:52.624801  2751 layer_factory.hpp:77] Creating layer conv3_2_bn0
I1206 10:32:52.624814  2751 net.cpp:128] Creating Layer conv3_2_bn0
I1206 10:32:52.624820  2751 net.cpp:558] conv3_2_bn0 <- conv3_2_0
I1206 10:32:52.624827  2751 net.cpp:509] conv3_2_bn0 -> conv3_2_0 (in-place)
I1206 10:32:52.625124  2751 net.cpp:172] Setting up conv3_2_bn0
I1206 10:32:52.625139  2751 net.cpp:186] Top shape: 10 32 16 16 (81920)
I1206 10:32:52.625145  2751 net.cpp:194] Memory required for data: 30924920
I1206 10:32:52.625157  2751 layer_factory.hpp:77] Creating layer conv3_2_scale0
I1206 10:32:52.625166  2751 net.cpp:128] Creating Layer conv3_2_scale0
I1206 10:32:52.625171  2751 net.cpp:558] conv3_2_scale0 <- conv3_2_0
I1206 10:32:52.625177  2751 net.cpp:509] conv3_2_scale0 -> conv3_2_0 (in-place)
I1206 10:32:52.625231  2751 layer_factory.hpp:77] Creating layer conv3_2_scale0
I1206 10:32:52.625385  2751 net.cpp:172] Setting up conv3_2_scale0
I1206 10:32:52.625396  2751 net.cpp:186] Top shape: 10 32 16 16 (81920)
I1206 10:32:52.625401  2751 net.cpp:194] Memory required for data: 31252600
I1206 10:32:52.625408  2751 layer_factory.hpp:77] Creating layer conv3_2_ReLU0
I1206 10:32:52.625416  2751 net.cpp:128] Creating Layer conv3_2_ReLU0
I1206 10:32:52.625422  2751 net.cpp:558] conv3_2_ReLU0 <- conv3_2_0
I1206 10:32:52.625428  2751 net.cpp:509] conv3_2_ReLU0 -> conv3_2_0 (in-place)
I1206 10:32:52.625665  2751 net.cpp:172] Setting up conv3_2_ReLU0
I1206 10:32:52.625694  2751 net.cpp:186] Top shape: 10 32 16 16 (81920)
I1206 10:32:52.625699  2751 net.cpp:194] Memory required for data: 31580280
I1206 10:32:52.625703  2751 layer_factory.hpp:77] Creating layer conv3_2_1
I1206 10:32:52.625718  2751 net.cpp:128] Creating Layer conv3_2_1
I1206 10:32:52.625723  2751 net.cpp:558] conv3_2_1 <- conv3_2_0
I1206 10:32:52.625731  2751 net.cpp:522] conv3_2_1 -> conv3_2_1
I1206 10:32:52.627177  2751 net.cpp:172] Setting up conv3_2_1
I1206 10:32:52.627202  2751 net.cpp:186] Top shape: 10 32 16 16 (81920)
I1206 10:32:52.627207  2751 net.cpp:194] Memory required for data: 31907960
I1206 10:32:52.627216  2751 layer_factory.hpp:77] Creating layer conv3_2bn1
I1206 10:32:52.627228  2751 net.cpp:128] Creating Layer conv3_2bn1
I1206 10:32:52.627233  2751 net.cpp:558] conv3_2bn1 <- conv3_2_1
I1206 10:32:52.627246  2751 net.cpp:509] conv3_2bn1 -> conv3_2_1 (in-place)
I1206 10:32:52.627513  2751 net.cpp:172] Setting up conv3_2bn1
I1206 10:32:52.627523  2751 net.cpp:186] Top shape: 10 32 16 16 (81920)
I1206 10:32:52.627528  2751 net.cpp:194] Memory required for data: 32235640
I1206 10:32:52.627537  2751 layer_factory.hpp:77] Creating layer conv3_2_scale1
I1206 10:32:52.627545  2751 net.cpp:128] Creating Layer conv3_2_scale1
I1206 10:32:52.627550  2751 net.cpp:558] conv3_2_scale1 <- conv3_2_1
I1206 10:32:52.627557  2751 net.cpp:509] conv3_2_scale1 -> conv3_2_1 (in-place)
I1206 10:32:52.627606  2751 layer_factory.hpp:77] Creating layer conv3_2_scale1
I1206 10:32:52.627764  2751 net.cpp:172] Setting up conv3_2_scale1
I1206 10:32:52.627774  2751 net.cpp:186] Top shape: 10 32 16 16 (81920)
I1206 10:32:52.627779  2751 net.cpp:194] Memory required for data: 32563320
I1206 10:32:52.627786  2751 layer_factory.hpp:77] Creating layer conv3_Eltwise_2
I1206 10:32:52.627795  2751 net.cpp:128] Creating Layer conv3_Eltwise_2
I1206 10:32:52.627800  2751 net.cpp:558] conv3_Eltwise_2 <- conv3_Eltwise_1_conv3_1ReLU_1_0_split_1
I1206 10:32:52.627805  2751 net.cpp:558] conv3_Eltwise_2 <- conv3_2_1
I1206 10:32:52.627811  2751 net.cpp:522] conv3_Eltwise_2 -> conv3_Eltwise_2
I1206 10:32:52.627836  2751 net.cpp:172] Setting up conv3_Eltwise_2
I1206 10:32:52.627843  2751 net.cpp:186] Top shape: 10 32 16 16 (81920)
I1206 10:32:52.627847  2751 net.cpp:194] Memory required for data: 32891000
I1206 10:32:52.627851  2751 layer_factory.hpp:77] Creating layer conv3_2ReLU_1
I1206 10:32:52.627857  2751 net.cpp:128] Creating Layer conv3_2ReLU_1
I1206 10:32:52.627862  2751 net.cpp:558] conv3_2ReLU_1 <- conv3_Eltwise_2
I1206 10:32:52.627867  2751 net.cpp:509] conv3_2ReLU_1 -> conv3_Eltwise_2 (in-place)
I1206 10:32:52.628105  2751 net.cpp:172] Setting up conv3_2ReLU_1
I1206 10:32:52.628119  2751 net.cpp:186] Top shape: 10 32 16 16 (81920)
I1206 10:32:52.628123  2751 net.cpp:194] Memory required for data: 33218680
I1206 10:32:52.628129  2751 layer_factory.hpp:77] Creating layer conv3_Eltwise_2_conv3_2ReLU_1_0_split
I1206 10:32:52.628135  2751 net.cpp:128] Creating Layer conv3_Eltwise_2_conv3_2ReLU_1_0_split
I1206 10:32:52.628139  2751 net.cpp:558] conv3_Eltwise_2_conv3_2ReLU_1_0_split <- conv3_Eltwise_2
I1206 10:32:52.628149  2751 net.cpp:522] conv3_Eltwise_2_conv3_2ReLU_1_0_split -> conv3_Eltwise_2_conv3_2ReLU_1_0_split_0
I1206 10:32:52.628156  2751 net.cpp:522] conv3_Eltwise_2_conv3_2ReLU_1_0_split -> conv3_Eltwise_2_conv3_2ReLU_1_0_split_1
I1206 10:32:52.628213  2751 net.cpp:172] Setting up conv3_Eltwise_2_conv3_2ReLU_1_0_split
I1206 10:32:52.628237  2751 net.cpp:186] Top shape: 10 32 16 16 (81920)
I1206 10:32:52.628245  2751 net.cpp:186] Top shape: 10 32 16 16 (81920)
I1206 10:32:52.628249  2751 net.cpp:194] Memory required for data: 33874040
I1206 10:32:52.628253  2751 layer_factory.hpp:77] Creating layer conv3_3_0
I1206 10:32:52.628265  2751 net.cpp:128] Creating Layer conv3_3_0
I1206 10:32:52.628270  2751 net.cpp:558] conv3_3_0 <- conv3_Eltwise_2_conv3_2ReLU_1_0_split_0
I1206 10:32:52.628278  2751 net.cpp:522] conv3_3_0 -> conv3_3_0
I1206 10:32:52.629717  2751 net.cpp:172] Setting up conv3_3_0
I1206 10:32:52.629757  2751 net.cpp:186] Top shape: 10 32 16 16 (81920)
I1206 10:32:52.629762  2751 net.cpp:194] Memory required for data: 34201720
I1206 10:32:52.629771  2751 layer_factory.hpp:77] Creating layer conv3_3_bn0
I1206 10:32:52.629783  2751 net.cpp:128] Creating Layer conv3_3_bn0
I1206 10:32:52.629788  2751 net.cpp:558] conv3_3_bn0 <- conv3_3_0
I1206 10:32:52.629801  2751 net.cpp:509] conv3_3_bn0 -> conv3_3_0 (in-place)
I1206 10:32:52.630076  2751 net.cpp:172] Setting up conv3_3_bn0
I1206 10:32:52.630087  2751 net.cpp:186] Top shape: 10 32 16 16 (81920)
I1206 10:32:52.630091  2751 net.cpp:194] Memory required for data: 34529400
I1206 10:32:52.630101  2751 layer_factory.hpp:77] Creating layer conv3_3_scale0
I1206 10:32:52.630107  2751 net.cpp:128] Creating Layer conv3_3_scale0
I1206 10:32:52.630112  2751 net.cpp:558] conv3_3_scale0 <- conv3_3_0
I1206 10:32:52.630117  2751 net.cpp:509] conv3_3_scale0 -> conv3_3_0 (in-place)
I1206 10:32:52.630168  2751 layer_factory.hpp:77] Creating layer conv3_3_scale0
I1206 10:32:52.630328  2751 net.cpp:172] Setting up conv3_3_scale0
I1206 10:32:52.630339  2751 net.cpp:186] Top shape: 10 32 16 16 (81920)
I1206 10:32:52.630343  2751 net.cpp:194] Memory required for data: 34857080
I1206 10:32:52.630352  2751 layer_factory.hpp:77] Creating layer conv3_3_ReLU0
I1206 10:32:52.630360  2751 net.cpp:128] Creating Layer conv3_3_ReLU0
I1206 10:32:52.630364  2751 net.cpp:558] conv3_3_ReLU0 <- conv3_3_0
I1206 10:32:52.630370  2751 net.cpp:509] conv3_3_ReLU0 -> conv3_3_0 (in-place)
I1206 10:32:52.630808  2751 net.cpp:172] Setting up conv3_3_ReLU0
I1206 10:32:52.630829  2751 net.cpp:186] Top shape: 10 32 16 16 (81920)
I1206 10:32:52.630834  2751 net.cpp:194] Memory required for data: 35184760
I1206 10:32:52.630839  2751 layer_factory.hpp:77] Creating layer conv3_3_1
I1206 10:32:52.630858  2751 net.cpp:128] Creating Layer conv3_3_1
I1206 10:32:52.630864  2751 net.cpp:558] conv3_3_1 <- conv3_3_0
I1206 10:32:52.630872  2751 net.cpp:522] conv3_3_1 -> conv3_3_1
I1206 10:32:52.632330  2751 net.cpp:172] Setting up conv3_3_1
I1206 10:32:52.632359  2751 net.cpp:186] Top shape: 10 32 16 16 (81920)
I1206 10:32:52.632364  2751 net.cpp:194] Memory required for data: 35512440
I1206 10:32:52.632374  2751 layer_factory.hpp:77] Creating layer conv3_3bn1
I1206 10:32:52.632382  2751 net.cpp:128] Creating Layer conv3_3bn1
I1206 10:32:52.632387  2751 net.cpp:558] conv3_3bn1 <- conv3_3_1
I1206 10:32:52.632400  2751 net.cpp:509] conv3_3bn1 -> conv3_3_1 (in-place)
I1206 10:32:52.632671  2751 net.cpp:172] Setting up conv3_3bn1
I1206 10:32:52.632681  2751 net.cpp:186] Top shape: 10 32 16 16 (81920)
I1206 10:32:52.632686  2751 net.cpp:194] Memory required for data: 35840120
I1206 10:32:52.632695  2751 layer_factory.hpp:77] Creating layer conv3_3_scale1
I1206 10:32:52.632704  2751 net.cpp:128] Creating Layer conv3_3_scale1
I1206 10:32:52.632709  2751 net.cpp:558] conv3_3_scale1 <- conv3_3_1
I1206 10:32:52.632714  2751 net.cpp:509] conv3_3_scale1 -> conv3_3_1 (in-place)
I1206 10:32:52.632763  2751 layer_factory.hpp:77] Creating layer conv3_3_scale1
I1206 10:32:52.632917  2751 net.cpp:172] Setting up conv3_3_scale1
I1206 10:32:52.632930  2751 net.cpp:186] Top shape: 10 32 16 16 (81920)
I1206 10:32:52.632935  2751 net.cpp:194] Memory required for data: 36167800
I1206 10:32:52.632942  2751 layer_factory.hpp:77] Creating layer conv3_Eltwise_3
I1206 10:32:52.632949  2751 net.cpp:128] Creating Layer conv3_Eltwise_3
I1206 10:32:52.632953  2751 net.cpp:558] conv3_Eltwise_3 <- conv3_Eltwise_2_conv3_2ReLU_1_0_split_1
I1206 10:32:52.632959  2751 net.cpp:558] conv3_Eltwise_3 <- conv3_3_1
I1206 10:32:52.632966  2751 net.cpp:522] conv3_Eltwise_3 -> conv3_Eltwise_3
I1206 10:32:52.632992  2751 net.cpp:172] Setting up conv3_Eltwise_3
I1206 10:32:52.632998  2751 net.cpp:186] Top shape: 10 32 16 16 (81920)
I1206 10:32:52.633002  2751 net.cpp:194] Memory required for data: 36495480
I1206 10:32:52.633006  2751 layer_factory.hpp:77] Creating layer conv3_3ReLU_1
I1206 10:32:52.633013  2751 net.cpp:128] Creating Layer conv3_3ReLU_1
I1206 10:32:52.633031  2751 net.cpp:558] conv3_3ReLU_1 <- conv3_Eltwise_3
I1206 10:32:52.633040  2751 net.cpp:509] conv3_3ReLU_1 -> conv3_Eltwise_3 (in-place)
I1206 10:32:52.633289  2751 net.cpp:172] Setting up conv3_3ReLU_1
I1206 10:32:52.633306  2751 net.cpp:186] Top shape: 10 32 16 16 (81920)
I1206 10:32:52.633311  2751 net.cpp:194] Memory required for data: 36823160
I1206 10:32:52.633316  2751 layer_factory.hpp:77] Creating layer conv3_Eltwise_3_conv3_3ReLU_1_0_split
I1206 10:32:52.633323  2751 net.cpp:128] Creating Layer conv3_Eltwise_3_conv3_3ReLU_1_0_split
I1206 10:32:52.633328  2751 net.cpp:558] conv3_Eltwise_3_conv3_3ReLU_1_0_split <- conv3_Eltwise_3
I1206 10:32:52.633337  2751 net.cpp:522] conv3_Eltwise_3_conv3_3ReLU_1_0_split -> conv3_Eltwise_3_conv3_3ReLU_1_0_split_0
I1206 10:32:52.633345  2751 net.cpp:522] conv3_Eltwise_3_conv3_3ReLU_1_0_split -> conv3_Eltwise_3_conv3_3ReLU_1_0_split_1
I1206 10:32:52.633401  2751 net.cpp:172] Setting up conv3_Eltwise_3_conv3_3ReLU_1_0_split
I1206 10:32:52.633411  2751 net.cpp:186] Top shape: 10 32 16 16 (81920)
I1206 10:32:52.633419  2751 net.cpp:186] Top shape: 10 32 16 16 (81920)
I1206 10:32:52.633421  2751 net.cpp:194] Memory required for data: 37478520
I1206 10:32:52.633426  2751 layer_factory.hpp:77] Creating layer conv4_1_0
I1206 10:32:52.633438  2751 net.cpp:128] Creating Layer conv4_1_0
I1206 10:32:52.633443  2751 net.cpp:558] conv4_1_0 <- conv3_Eltwise_3_conv3_3ReLU_1_0_split_0
I1206 10:32:52.633453  2751 net.cpp:522] conv4_1_0 -> conv4_1_0
I1206 10:32:52.635066  2751 net.cpp:172] Setting up conv4_1_0
I1206 10:32:52.635092  2751 net.cpp:186] Top shape: 10 64 8 8 (40960)
I1206 10:32:52.635097  2751 net.cpp:194] Memory required for data: 37642360
I1206 10:32:52.635107  2751 layer_factory.hpp:77] Creating layer conv4_1_bn0
I1206 10:32:52.635118  2751 net.cpp:128] Creating Layer conv4_1_bn0
I1206 10:32:52.635123  2751 net.cpp:558] conv4_1_bn0 <- conv4_1_0
I1206 10:32:52.635130  2751 net.cpp:509] conv4_1_bn0 -> conv4_1_0 (in-place)
I1206 10:32:52.635412  2751 net.cpp:172] Setting up conv4_1_bn0
I1206 10:32:52.635423  2751 net.cpp:186] Top shape: 10 64 8 8 (40960)
I1206 10:32:52.635427  2751 net.cpp:194] Memory required for data: 37806200
I1206 10:32:52.635437  2751 layer_factory.hpp:77] Creating layer conv4_1_scale0
I1206 10:32:52.635445  2751 net.cpp:128] Creating Layer conv4_1_scale0
I1206 10:32:52.635450  2751 net.cpp:558] conv4_1_scale0 <- conv4_1_0
I1206 10:32:52.635457  2751 net.cpp:509] conv4_1_scale0 -> conv4_1_0 (in-place)
I1206 10:32:52.635506  2751 layer_factory.hpp:77] Creating layer conv4_1_scale0
I1206 10:32:52.635668  2751 net.cpp:172] Setting up conv4_1_scale0
I1206 10:32:52.635677  2751 net.cpp:186] Top shape: 10 64 8 8 (40960)
I1206 10:32:52.635682  2751 net.cpp:194] Memory required for data: 37970040
I1206 10:32:52.635689  2751 layer_factory.hpp:77] Creating layer conv4_1_ReLU0
I1206 10:32:52.635699  2751 net.cpp:128] Creating Layer conv4_1_ReLU0
I1206 10:32:52.635704  2751 net.cpp:558] conv4_1_ReLU0 <- conv4_1_0
I1206 10:32:52.635710  2751 net.cpp:509] conv4_1_ReLU0 -> conv4_1_0 (in-place)
I1206 10:32:52.635953  2751 net.cpp:172] Setting up conv4_1_ReLU0
I1206 10:32:52.635969  2751 net.cpp:186] Top shape: 10 64 8 8 (40960)
I1206 10:32:52.635974  2751 net.cpp:194] Memory required for data: 38133880
I1206 10:32:52.635978  2751 layer_factory.hpp:77] Creating layer conv4_1_1
I1206 10:32:52.635990  2751 net.cpp:128] Creating Layer conv4_1_1
I1206 10:32:52.635996  2751 net.cpp:558] conv4_1_1 <- conv4_1_0
I1206 10:32:52.636005  2751 net.cpp:522] conv4_1_1 -> conv4_1_1
I1206 10:32:52.637923  2751 net.cpp:172] Setting up conv4_1_1
I1206 10:32:52.637948  2751 net.cpp:186] Top shape: 10 64 8 8 (40960)
I1206 10:32:52.637953  2751 net.cpp:194] Memory required for data: 38297720
I1206 10:32:52.637962  2751 layer_factory.hpp:77] Creating layer conv4_1bn1
I1206 10:32:52.637974  2751 net.cpp:128] Creating Layer conv4_1bn1
I1206 10:32:52.637980  2751 net.cpp:558] conv4_1bn1 <- conv4_1_1
I1206 10:32:52.637991  2751 net.cpp:509] conv4_1bn1 -> conv4_1_1 (in-place)
I1206 10:32:52.638267  2751 net.cpp:172] Setting up conv4_1bn1
I1206 10:32:52.638293  2751 net.cpp:186] Top shape: 10 64 8 8 (40960)
I1206 10:32:52.638298  2751 net.cpp:194] Memory required for data: 38461560
I1206 10:32:52.638306  2751 layer_factory.hpp:77] Creating layer conv4_1_scale1
I1206 10:32:52.638314  2751 net.cpp:128] Creating Layer conv4_1_scale1
I1206 10:32:52.638319  2751 net.cpp:558] conv4_1_scale1 <- conv4_1_1
I1206 10:32:52.638324  2751 net.cpp:509] conv4_1_scale1 -> conv4_1_1 (in-place)
I1206 10:32:52.638378  2751 layer_factory.hpp:77] Creating layer conv4_1_scale1
I1206 10:32:52.638538  2751 net.cpp:172] Setting up conv4_1_scale1
I1206 10:32:52.638551  2751 net.cpp:186] Top shape: 10 64 8 8 (40960)
I1206 10:32:52.638556  2751 net.cpp:194] Memory required for data: 38625400
I1206 10:32:52.638563  2751 layer_factory.hpp:77] Creating layer conv4_1_down
I1206 10:32:52.638576  2751 net.cpp:128] Creating Layer conv4_1_down
I1206 10:32:52.638581  2751 net.cpp:558] conv4_1_down <- conv3_Eltwise_3_conv3_3ReLU_1_0_split_1
I1206 10:32:52.638588  2751 net.cpp:522] conv4_1_down -> conv4_1_down
I1206 10:32:52.639936  2751 net.cpp:172] Setting up conv4_1_down
I1206 10:32:52.639961  2751 net.cpp:186] Top shape: 10 64 8 8 (40960)
I1206 10:32:52.639966  2751 net.cpp:194] Memory required for data: 38789240
I1206 10:32:52.639976  2751 layer_factory.hpp:77] Creating layer conv4_1_bn_down
I1206 10:32:52.639984  2751 net.cpp:128] Creating Layer conv4_1_bn_down
I1206 10:32:52.639989  2751 net.cpp:558] conv4_1_bn_down <- conv4_1_down
I1206 10:32:52.639998  2751 net.cpp:509] conv4_1_bn_down -> conv4_1_down (in-place)
I1206 10:32:52.640291  2751 net.cpp:172] Setting up conv4_1_bn_down
I1206 10:32:52.640302  2751 net.cpp:186] Top shape: 10 64 8 8 (40960)
I1206 10:32:52.640306  2751 net.cpp:194] Memory required for data: 38953080
I1206 10:32:52.640316  2751 layer_factory.hpp:77] Creating layer conv4_1_scale_down
I1206 10:32:52.640326  2751 net.cpp:128] Creating Layer conv4_1_scale_down
I1206 10:32:52.640331  2751 net.cpp:558] conv4_1_scale_down <- conv4_1_down
I1206 10:32:52.640336  2751 net.cpp:509] conv4_1_scale_down -> conv4_1_down (in-place)
I1206 10:32:52.640389  2751 layer_factory.hpp:77] Creating layer conv4_1_scale_down
I1206 10:32:52.640549  2751 net.cpp:172] Setting up conv4_1_scale_down
I1206 10:32:52.640558  2751 net.cpp:186] Top shape: 10 64 8 8 (40960)
I1206 10:32:52.640563  2751 net.cpp:194] Memory required for data: 39116920
I1206 10:32:52.640570  2751 layer_factory.hpp:77] Creating layer conv4_Eltwise_1
I1206 10:32:52.640585  2751 net.cpp:128] Creating Layer conv4_Eltwise_1
I1206 10:32:52.640590  2751 net.cpp:558] conv4_Eltwise_1 <- conv4_1_1
I1206 10:32:52.640595  2751 net.cpp:558] conv4_Eltwise_1 <- conv4_1_down
I1206 10:32:52.640601  2751 net.cpp:522] conv4_Eltwise_1 -> conv4_Eltwise_1
I1206 10:32:52.640630  2751 net.cpp:172] Setting up conv4_Eltwise_1
I1206 10:32:52.640640  2751 net.cpp:186] Top shape: 10 64 8 8 (40960)
I1206 10:32:52.640645  2751 net.cpp:194] Memory required for data: 39280760
I1206 10:32:52.640650  2751 layer_factory.hpp:77] Creating layer conv4_1ReLU_1
I1206 10:32:52.640655  2751 net.cpp:128] Creating Layer conv4_1ReLU_1
I1206 10:32:52.640660  2751 net.cpp:558] conv4_1ReLU_1 <- conv4_Eltwise_1
I1206 10:32:52.640667  2751 net.cpp:509] conv4_1ReLU_1 -> conv4_Eltwise_1 (in-place)
I1206 10:32:52.641106  2751 net.cpp:172] Setting up conv4_1ReLU_1
I1206 10:32:52.641127  2751 net.cpp:186] Top shape: 10 64 8 8 (40960)
I1206 10:32:52.641132  2751 net.cpp:194] Memory required for data: 39444600
I1206 10:32:52.641136  2751 layer_factory.hpp:77] Creating layer conv4_Eltwise_1_conv4_1ReLU_1_0_split
I1206 10:32:52.641146  2751 net.cpp:128] Creating Layer conv4_Eltwise_1_conv4_1ReLU_1_0_split
I1206 10:32:52.641152  2751 net.cpp:558] conv4_Eltwise_1_conv4_1ReLU_1_0_split <- conv4_Eltwise_1
I1206 10:32:52.641160  2751 net.cpp:522] conv4_Eltwise_1_conv4_1ReLU_1_0_split -> conv4_Eltwise_1_conv4_1ReLU_1_0_split_0
I1206 10:32:52.641168  2751 net.cpp:522] conv4_Eltwise_1_conv4_1ReLU_1_0_split -> conv4_Eltwise_1_conv4_1ReLU_1_0_split_1
I1206 10:32:52.641244  2751 net.cpp:172] Setting up conv4_Eltwise_1_conv4_1ReLU_1_0_split
I1206 10:32:52.641252  2751 net.cpp:186] Top shape: 10 64 8 8 (40960)
I1206 10:32:52.641258  2751 net.cpp:186] Top shape: 10 64 8 8 (40960)
I1206 10:32:52.641263  2751 net.cpp:194] Memory required for data: 39772280
I1206 10:32:52.641268  2751 layer_factory.hpp:77] Creating layer conv4_2_0
I1206 10:32:52.641279  2751 net.cpp:128] Creating Layer conv4_2_0
I1206 10:32:52.641284  2751 net.cpp:558] conv4_2_0 <- conv4_Eltwise_1_conv4_1ReLU_1_0_split_0
I1206 10:32:52.641294  2751 net.cpp:522] conv4_2_0 -> conv4_2_0
I1206 10:32:52.643457  2751 net.cpp:172] Setting up conv4_2_0
I1206 10:32:52.643482  2751 net.cpp:186] Top shape: 10 64 8 8 (40960)
I1206 10:32:52.643486  2751 net.cpp:194] Memory required for data: 39936120
I1206 10:32:52.643497  2751 layer_factory.hpp:77] Creating layer conv4_2_bn0
I1206 10:32:52.643507  2751 net.cpp:128] Creating Layer conv4_2_bn0
I1206 10:32:52.643513  2751 net.cpp:558] conv4_2_bn0 <- conv4_2_0
I1206 10:32:52.643522  2751 net.cpp:509] conv4_2_bn0 -> conv4_2_0 (in-place)
I1206 10:32:52.643816  2751 net.cpp:172] Setting up conv4_2_bn0
I1206 10:32:52.643828  2751 net.cpp:186] Top shape: 10 64 8 8 (40960)
I1206 10:32:52.643832  2751 net.cpp:194] Memory required for data: 40099960
I1206 10:32:52.643842  2751 layer_factory.hpp:77] Creating layer conv4_2_scale0
I1206 10:32:52.643849  2751 net.cpp:128] Creating Layer conv4_2_scale0
I1206 10:32:52.643853  2751 net.cpp:558] conv4_2_scale0 <- conv4_2_0
I1206 10:32:52.643862  2751 net.cpp:509] conv4_2_scale0 -> conv4_2_0 (in-place)
I1206 10:32:52.643910  2751 layer_factory.hpp:77] Creating layer conv4_2_scale0
I1206 10:32:52.644074  2751 net.cpp:172] Setting up conv4_2_scale0
I1206 10:32:52.644084  2751 net.cpp:186] Top shape: 10 64 8 8 (40960)
I1206 10:32:52.644088  2751 net.cpp:194] Memory required for data: 40263800
I1206 10:32:52.644096  2751 layer_factory.hpp:77] Creating layer conv4_2_ReLU0
I1206 10:32:52.644102  2751 net.cpp:128] Creating Layer conv4_2_ReLU0
I1206 10:32:52.644107  2751 net.cpp:558] conv4_2_ReLU0 <- conv4_2_0
I1206 10:32:52.644114  2751 net.cpp:509] conv4_2_ReLU0 -> conv4_2_0 (in-place)
I1206 10:32:52.644372  2751 net.cpp:172] Setting up conv4_2_ReLU0
I1206 10:32:52.644390  2751 net.cpp:186] Top shape: 10 64 8 8 (40960)
I1206 10:32:52.644397  2751 net.cpp:194] Memory required for data: 40427640
I1206 10:32:52.644400  2751 layer_factory.hpp:77] Creating layer conv4_2_1
I1206 10:32:52.644413  2751 net.cpp:128] Creating Layer conv4_2_1
I1206 10:32:52.644418  2751 net.cpp:558] conv4_2_1 <- conv4_2_0
I1206 10:32:52.644428  2751 net.cpp:522] conv4_2_1 -> conv4_2_1
I1206 10:32:52.646345  2751 net.cpp:172] Setting up conv4_2_1
I1206 10:32:52.646368  2751 net.cpp:186] Top shape: 10 64 8 8 (40960)
I1206 10:32:52.646373  2751 net.cpp:194] Memory required for data: 40591480
I1206 10:32:52.646384  2751 layer_factory.hpp:77] Creating layer conv4_2bn1
I1206 10:32:52.646394  2751 net.cpp:128] Creating Layer conv4_2bn1
I1206 10:32:52.646399  2751 net.cpp:558] conv4_2bn1 <- conv4_2_1
I1206 10:32:52.646405  2751 net.cpp:509] conv4_2bn1 -> conv4_2_1 (in-place)
I1206 10:32:52.646690  2751 net.cpp:172] Setting up conv4_2bn1
I1206 10:32:52.646701  2751 net.cpp:186] Top shape: 10 64 8 8 (40960)
I1206 10:32:52.646706  2751 net.cpp:194] Memory required for data: 40755320
I1206 10:32:52.646730  2751 layer_factory.hpp:77] Creating layer conv4_2_scale1
I1206 10:32:52.646739  2751 net.cpp:128] Creating Layer conv4_2_scale1
I1206 10:32:52.646744  2751 net.cpp:558] conv4_2_scale1 <- conv4_2_1
I1206 10:32:52.646750  2751 net.cpp:509] conv4_2_scale1 -> conv4_2_1 (in-place)
I1206 10:32:52.646805  2751 layer_factory.hpp:77] Creating layer conv4_2_scale1
I1206 10:32:52.646965  2751 net.cpp:172] Setting up conv4_2_scale1
I1206 10:32:52.646978  2751 net.cpp:186] Top shape: 10 64 8 8 (40960)
I1206 10:32:52.646982  2751 net.cpp:194] Memory required for data: 40919160
I1206 10:32:52.646991  2751 layer_factory.hpp:77] Creating layer conv4_Eltwise_2
I1206 10:32:52.646996  2751 net.cpp:128] Creating Layer conv4_Eltwise_2
I1206 10:32:52.647017  2751 net.cpp:558] conv4_Eltwise_2 <- conv4_Eltwise_1_conv4_1ReLU_1_0_split_1
I1206 10:32:52.647022  2751 net.cpp:558] conv4_Eltwise_2 <- conv4_2_1
I1206 10:32:52.647030  2751 net.cpp:522] conv4_Eltwise_2 -> conv4_Eltwise_2
I1206 10:32:52.647061  2751 net.cpp:172] Setting up conv4_Eltwise_2
I1206 10:32:52.647073  2751 net.cpp:186] Top shape: 10 64 8 8 (40960)
I1206 10:32:52.647078  2751 net.cpp:194] Memory required for data: 41083000
I1206 10:32:52.647081  2751 layer_factory.hpp:77] Creating layer conv4_2ReLU_1
I1206 10:32:52.647087  2751 net.cpp:128] Creating Layer conv4_2ReLU_1
I1206 10:32:52.647091  2751 net.cpp:558] conv4_2ReLU_1 <- conv4_Eltwise_2
I1206 10:32:52.647097  2751 net.cpp:509] conv4_2ReLU_1 -> conv4_Eltwise_2 (in-place)
I1206 10:32:52.647346  2751 net.cpp:172] Setting up conv4_2ReLU_1
I1206 10:32:52.647361  2751 net.cpp:186] Top shape: 10 64 8 8 (40960)
I1206 10:32:52.647366  2751 net.cpp:194] Memory required for data: 41246840
I1206 10:32:52.647370  2751 layer_factory.hpp:77] Creating layer conv4_Eltwise_2_conv4_2ReLU_1_0_split
I1206 10:32:52.647377  2751 net.cpp:128] Creating Layer conv4_Eltwise_2_conv4_2ReLU_1_0_split
I1206 10:32:52.647382  2751 net.cpp:558] conv4_Eltwise_2_conv4_2ReLU_1_0_split <- conv4_Eltwise_2
I1206 10:32:52.647389  2751 net.cpp:522] conv4_Eltwise_2_conv4_2ReLU_1_0_split -> conv4_Eltwise_2_conv4_2ReLU_1_0_split_0
I1206 10:32:52.647398  2751 net.cpp:522] conv4_Eltwise_2_conv4_2ReLU_1_0_split -> conv4_Eltwise_2_conv4_2ReLU_1_0_split_1
I1206 10:32:52.647454  2751 net.cpp:172] Setting up conv4_Eltwise_2_conv4_2ReLU_1_0_split
I1206 10:32:52.647462  2751 net.cpp:186] Top shape: 10 64 8 8 (40960)
I1206 10:32:52.647469  2751 net.cpp:186] Top shape: 10 64 8 8 (40960)
I1206 10:32:52.647472  2751 net.cpp:194] Memory required for data: 41574520
I1206 10:32:52.647476  2751 layer_factory.hpp:77] Creating layer conv4_3_0
I1206 10:32:52.647490  2751 net.cpp:128] Creating Layer conv4_3_0
I1206 10:32:52.647495  2751 net.cpp:558] conv4_3_0 <- conv4_Eltwise_2_conv4_2ReLU_1_0_split_0
I1206 10:32:52.647502  2751 net.cpp:522] conv4_3_0 -> conv4_3_0
I1206 10:32:52.649590  2751 net.cpp:172] Setting up conv4_3_0
I1206 10:32:52.649617  2751 net.cpp:186] Top shape: 10 64 8 8 (40960)
I1206 10:32:52.649622  2751 net.cpp:194] Memory required for data: 41738360
I1206 10:32:52.649634  2751 layer_factory.hpp:77] Creating layer conv4_3_bn0
I1206 10:32:52.649643  2751 net.cpp:128] Creating Layer conv4_3_bn0
I1206 10:32:52.649650  2751 net.cpp:558] conv4_3_bn0 <- conv4_3_0
I1206 10:32:52.649660  2751 net.cpp:509] conv4_3_bn0 -> conv4_3_0 (in-place)
I1206 10:32:52.649968  2751 net.cpp:172] Setting up conv4_3_bn0
I1206 10:32:52.649978  2751 net.cpp:186] Top shape: 10 64 8 8 (40960)
I1206 10:32:52.649983  2751 net.cpp:194] Memory required for data: 41902200
I1206 10:32:52.649992  2751 layer_factory.hpp:77] Creating layer conv4_3_scale0
I1206 10:32:52.649999  2751 net.cpp:128] Creating Layer conv4_3_scale0
I1206 10:32:52.650004  2751 net.cpp:558] conv4_3_scale0 <- conv4_3_0
I1206 10:32:52.650012  2751 net.cpp:509] conv4_3_scale0 -> conv4_3_0 (in-place)
I1206 10:32:52.650064  2751 layer_factory.hpp:77] Creating layer conv4_3_scale0
I1206 10:32:52.650231  2751 net.cpp:172] Setting up conv4_3_scale0
I1206 10:32:52.650243  2751 net.cpp:186] Top shape: 10 64 8 8 (40960)
I1206 10:32:52.650246  2751 net.cpp:194] Memory required for data: 42066040
I1206 10:32:52.650254  2751 layer_factory.hpp:77] Creating layer conv4_3_ReLU0
I1206 10:32:52.650262  2751 net.cpp:128] Creating Layer conv4_3_ReLU0
I1206 10:32:52.650267  2751 net.cpp:558] conv4_3_ReLU0 <- conv4_3_0
I1206 10:32:52.650274  2751 net.cpp:509] conv4_3_ReLU0 -> conv4_3_0 (in-place)
I1206 10:32:52.650524  2751 net.cpp:172] Setting up conv4_3_ReLU0
I1206 10:32:52.650538  2751 net.cpp:186] Top shape: 10 64 8 8 (40960)
I1206 10:32:52.650543  2751 net.cpp:194] Memory required for data: 42229880
I1206 10:32:52.650547  2751 layer_factory.hpp:77] Creating layer conv4_3_1
I1206 10:32:52.650562  2751 net.cpp:128] Creating Layer conv4_3_1
I1206 10:32:52.650583  2751 net.cpp:558] conv4_3_1 <- conv4_3_0
I1206 10:32:52.650590  2751 net.cpp:522] conv4_3_1 -> conv4_3_1
I1206 10:32:52.653843  2751 net.cpp:172] Setting up conv4_3_1
I1206 10:32:52.653872  2751 net.cpp:186] Top shape: 10 64 8 8 (40960)
I1206 10:32:52.653877  2751 net.cpp:194] Memory required for data: 42393720
I1206 10:32:52.653893  2751 layer_factory.hpp:77] Creating layer conv4_3bn1
I1206 10:32:52.653908  2751 net.cpp:128] Creating Layer conv4_3bn1
I1206 10:32:52.653913  2751 net.cpp:558] conv4_3bn1 <- conv4_3_1
I1206 10:32:52.653923  2751 net.cpp:509] conv4_3bn1 -> conv4_3_1 (in-place)
I1206 10:32:52.654214  2751 net.cpp:172] Setting up conv4_3bn1
I1206 10:32:52.654224  2751 net.cpp:186] Top shape: 10 64 8 8 (40960)
I1206 10:32:52.654228  2751 net.cpp:194] Memory required for data: 42557560
I1206 10:32:52.654237  2751 layer_factory.hpp:77] Creating layer conv4_3_scale1
I1206 10:32:52.654247  2751 net.cpp:128] Creating Layer conv4_3_scale1
I1206 10:32:52.654251  2751 net.cpp:558] conv4_3_scale1 <- conv4_3_1
I1206 10:32:52.654258  2751 net.cpp:509] conv4_3_scale1 -> conv4_3_1 (in-place)
I1206 10:32:52.654321  2751 layer_factory.hpp:77] Creating layer conv4_3_scale1
I1206 10:32:52.654487  2751 net.cpp:172] Setting up conv4_3_scale1
I1206 10:32:52.654496  2751 net.cpp:186] Top shape: 10 64 8 8 (40960)
I1206 10:32:52.654501  2751 net.cpp:194] Memory required for data: 42721400
I1206 10:32:52.654508  2751 layer_factory.hpp:77] Creating layer conv4_Eltwise_3
I1206 10:32:52.654523  2751 net.cpp:128] Creating Layer conv4_Eltwise_3
I1206 10:32:52.654532  2751 net.cpp:558] conv4_Eltwise_3 <- conv4_Eltwise_2_conv4_2ReLU_1_0_split_1
I1206 10:32:52.654538  2751 net.cpp:558] conv4_Eltwise_3 <- conv4_3_1
I1206 10:32:52.654544  2751 net.cpp:522] conv4_Eltwise_3 -> conv4_Eltwise_3
I1206 10:32:52.654575  2751 net.cpp:172] Setting up conv4_Eltwise_3
I1206 10:32:52.654584  2751 net.cpp:186] Top shape: 10 64 8 8 (40960)
I1206 10:32:52.654588  2751 net.cpp:194] Memory required for data: 42885240
I1206 10:32:52.654593  2751 layer_factory.hpp:77] Creating layer conv4_3ReLU_1
I1206 10:32:52.654599  2751 net.cpp:128] Creating Layer conv4_3ReLU_1
I1206 10:32:52.654604  2751 net.cpp:558] conv4_3ReLU_1 <- conv4_Eltwise_3
I1206 10:32:52.654613  2751 net.cpp:509] conv4_3ReLU_1 -> conv4_Eltwise_3 (in-place)
I1206 10:32:52.655047  2751 net.cpp:172] Setting up conv4_3ReLU_1
I1206 10:32:52.655067  2751 net.cpp:186] Top shape: 10 64 8 8 (40960)
I1206 10:32:52.655072  2751 net.cpp:194] Memory required for data: 43049080
I1206 10:32:52.655077  2751 layer_factory.hpp:77] Creating layer Pooling1
I1206 10:32:52.655091  2751 net.cpp:128] Creating Layer Pooling1
I1206 10:32:52.655097  2751 net.cpp:558] Pooling1 <- conv4_Eltwise_3
I1206 10:32:52.655105  2751 net.cpp:522] Pooling1 -> Pooling1
I1206 10:32:52.655375  2751 net.cpp:172] Setting up Pooling1
I1206 10:32:52.655388  2751 net.cpp:186] Top shape: 10 64 1 1 (640)
I1206 10:32:52.655393  2751 net.cpp:194] Memory required for data: 43051640
I1206 10:32:52.655397  2751 layer_factory.hpp:77] Creating layer fc1
I1206 10:32:52.655411  2751 net.cpp:128] Creating Layer fc1
I1206 10:32:52.655418  2751 net.cpp:558] fc1 <- Pooling1
I1206 10:32:52.655426  2751 net.cpp:522] fc1 -> fc1
I1206 10:32:52.656805  2751 net.cpp:172] Setting up fc1
I1206 10:32:52.656831  2751 net.cpp:186] Top shape: 10 10 1 1 (100)
I1206 10:32:52.656834  2751 net.cpp:194] Memory required for data: 43052040
I1206 10:32:52.656844  2751 layer_factory.hpp:77] Creating layer fc1_fc1_0_split
I1206 10:32:52.656854  2751 net.cpp:128] Creating Layer fc1_fc1_0_split
I1206 10:32:52.656860  2751 net.cpp:558] fc1_fc1_0_split <- fc1
I1206 10:32:52.656872  2751 net.cpp:522] fc1_fc1_0_split -> fc1_fc1_0_split_0
I1206 10:32:52.656880  2751 net.cpp:522] fc1_fc1_0_split -> fc1_fc1_0_split_1
I1206 10:32:52.656939  2751 net.cpp:172] Setting up fc1_fc1_0_split
I1206 10:32:52.656951  2751 net.cpp:186] Top shape: 10 10 1 1 (100)
I1206 10:32:52.656957  2751 net.cpp:186] Top shape: 10 10 1 1 (100)
I1206 10:32:52.656960  2751 net.cpp:194] Memory required for data: 43052840
I1206 10:32:52.656982  2751 layer_factory.hpp:77] Creating layer Softmax1
I1206 10:32:52.656989  2751 net.cpp:128] Creating Layer Softmax1
I1206 10:32:52.656994  2751 net.cpp:558] Softmax1 <- fc1_fc1_0_split_0
I1206 10:32:52.656999  2751 net.cpp:558] Softmax1 <- label_Data1_1_split_0
I1206 10:32:52.657006  2751 net.cpp:522] Softmax1 -> Softmax1
…
